DQN/rocket_dqn_checkpoint.pth (torch, 576098 bytes, 44 tensors)

hidden.0.weight f4 [128, 8]
000000 f6 de 20 be ee 38 87 be dc 3b 69 3f a5 87 94 3e
       -0.15710053 -0.2641062 0.91106963 0.2900974
000010 59 f6 23 c0 5c 40 b4 bf 93 b0 64 3e 56 4b a2 bf
       -2.5619109 -1.4082141 0.22332983 -1.2679241
000020 5e ac 9f bd 9c ab af 3d 0f 52 29 bd 07 4c 66 3f
       -0.07796548 0.08577654 -0.041338023 0.8995976
000030 fc 2b 5c be 13 0a 09 40 c0 5f 20 be b6 48 f8 c0
       -0.21501154 2.14124 -0.15661526 -7.758876
000040 af 23 91 3d c4 54 18 3e d5 86 1c bf fc d0 cc 3e
       0.07086884 0.14876086 -0.6114324 0.40003192
000050 e9 19 29 be 35 af 12 bf f3 00 86 bf ee ad 0e c1
       -0.1651379 -0.57298595 -1.046904 -8.917463
000060 f0 c5 2c 3d 43 b5 26 be fa 9e 45 3e 0d ed a7 3e
       0.042180955 -0.16280083 0.19298926 0.32798043
000070 e0 f6 96 bd cc 22 a5 bd 19 49 22 be 00 5d 3b bb
       -0.073713064 -0.080632776 -0.15848197 -0.0028589368
000080 70 aa ce bb ec 44 d0 bd 4e 3c ce bd 51 f8 01 3e
       -0.006306939 -0.10169396 -0.10070096 0.12692381
000090 f9 6a 10 40 62 20 87 40 21 d6 01 3d 2d 55 9f c0
       2.256529 4.222703 0.03169835 -4.9791474
0000a0 ca 5e 08 3c 6e 13 5d be 5c 44 89 bd 51 62 2e be
       0.008323381 -0.21589443 -0.06702492 -0.17029692
0000b0 82 8a e6 bc d4 0a 94 3e 7a 23 36 ba 2d 66 53 be
       -0.028142218 0.2891451 -0.00069480354 -0.20644446
0000c0 8a bc b5 3e 12 35 5d be 67 6c 43 3e ee f6 cd be
       0.35495406 -0.21602276 0.19084321 -0.40227455
0000d0 4e f5 99 bf f1 d0 6f c0 72 b9 93 3d 8c 04 ef 40
       -1.2027986 -3.7471278 0.07213105 7.469305
0000e0 fb 0a 3c 3c 1b ce 02 bd 99 ba 61 bd f0 bd 62 3d
       0.011477227 -0.03193484 -0.055109594 0.05535692
0000f0 57 99 a4 c0 af 63 d8 c0 d8 1f 00 bd c3 e5 ee 40
       -5.1437182 -6.7621684 -0.03128037 7.465547
000100 b6 80 fb 3c 52 c8 64 be ad 3b a3 3e c6 7a 7c bf
       0.030701023 -0.22342041 0.31881467 -0.9862484
000110 ea 1d 7e bf 3a 7e 89 bf 7e 31 81 3e cc 95 36 40
       -0.99264395 -1.0741646 0.25233072 2.8528929
000120 08 31 2e bd 3c ad 92 be c9 5e a4 be 0a 70 38 3e
       -0.04252723 -0.28647792 -0.32103565 0.1801149
000130 13 6b a0 3e 29 46 7e be 50 0d 61 be 3d 22 b1 3e
       0.3133169 -0.24831451 -0.21977735 0.34596434
000140 79 18 5a be ad ea 56 bd af 59 10 3e e5 73 8e be
       -0.21298398 -0.052469898 0.14096712 -0.27822796
000150 77 4a 4e c0 74 00 bf c0 26 82 e8 bc ae cd 0d 41
       -3.223295 -5.9688053 -0.028382372 8.862715
000160 e5 17 3d 3d 7f 97 12 be 1c 64 84 be 3a cf 33 bf
       0.046165366 -0.14315604 -0.25857627 -0.7023808
000170 bd 45 96 3f 8a 27 be 3e 3b 7f c9 bc 50 5f f0 3f
       1.1740032 0.3713954 -0.024596801 1.8779087
000180 70 20 29 be d2 cf aa bd c6 de d0 3e b8 9a c3 bc
       -0.1651628 -0.0834042 0.40794963 -0.023877487
000190 cf 6a 00 3f a2 02 93 be 76 3c 66 3e 81 b5 91 bf
       0.50162977 -0.28712946 0.22484002 -1.1383516
0001a0 7c 0b 31 bb 02 86 11 3e 12 12 36 bd 15 3b 03 3f
       -0.0027014902 0.14211276 -0.044450827 0.5126203
0001b0 fa 1b 81 40 19 f0 01 41 4d 8f 1d 3e b1 2e 1d c1
       4.034665 8.121118 0.15386696 -9.823899
0001c0 e8 2b 9d 3c 38 ee 1d be 1b 22 ad 3d 92 40 ab be
       0.019185975 -0.15422904 0.08453771 -0.334477
0001d0 49 f8 fc 3d 04 5e db bf d2 c2 b0 bd 38 56 3a 40
       0.12352044 -1.7138066 -0.08630909 2.9115124
0001e0 73 9a e6 bd 3a 30 a3 3d 0c 18 b9 bf e5 cc 9d 3e
       -0.112599276 0.07968183 -1.4460464 0.30820385
0001f0 a0 30 aa bf e3 86 07 c1 7a 23 e8 be 71 3a cc 40
       -1.3296089 -8.470431 -0.45339566 6.382134
000200 62 57 76 bb e9 e6 29 bd 77 c9 87 3e 38 61 bb 3c
       -0.0037588705 -0.04147998 0.26520893 0.022873506
000210 46 15 57 3f 70 ba 33 40 1a 8c 33 3e 41 29 dc c0
       0.84016836 2.8082542 0.17533913 -6.880036
000220 9b 2e ed 3d 91 11 eb bc 41 89 d6 3e f6 b0 ef be
       0.11581155 -0.0286949 0.4190159 -0.46814698
000230 d6 ca 09 bf f6 a5 9a bf 47 1c 8a be b9 78 c6 be
       -0.5382513 -1.2081897 -0.269747 -0.3876398
000240 d4 59 0c be d0 a4 35 be a8 0c 0e 3d a0 e5 cf bd
       -0.13706142 -0.17738652 0.03468004 -0.10151219
000250 6c d4 9f 3d 40 d5 fd 3c be b6 72 be 56 46 2f 3e
       0.07804188 0.030985475 -0.23702523 0.17116675
000260 1b 10 fb bc 8c e0 2d be ce 6f 0e be cc c7 e0 bf
       -0.030647328 -0.16980189 -0.13909838 -1.7560973
000270 e5 2c 8c 3f 14 6b c5 3e 1d aa 23 3e 8f 20 f8 40
       1.0951201 0.38558257 0.15982862 7.7539744
000280 7b d4 e3 ba 9c 40 26 3c d0 32 ed 3d 69 3f a7 bd
       -0.001738205 0.01014724 0.11581957 -0.081663914
000290 ed 3e 88 3f d1 11 3d c0 0f 0b 0c 3d a7 a8 46 41
       1.0644203 -2.9542124 0.034190234 12.416175
0002a0 e1 b7 32 bd 6f 34 1a 3e b8 51 80 be 05 ff 7f 3e
       -0.04363239 0.15059064 -0.25062346 0.24999626
0002b0 c8 9f 85 bf 62 9d 59 bf 6f 59 ca bf 81 fa a8 c0
       -1.0439386 -0.8500577 -1.5808543 -5.280579
0002c0 4c f8 ba 3d 0c 85 80 be d8 30 a1 bd 26 68 93 be
       0.0912939 -0.25101507 -0.07870644 -0.28790396
0002d0 8d b7 9e 3e b0 1b db 3d 64 f7 bc bd 49 4b 20 be
       0.30999413 0.1069864 -0.092268735 -0.15653719
0002e0 c3 60 2b be 45 d5 09 be aa b4 59 3e 86 36 e6 bd
       -0.1673613 -0.13460262 0.21260324 -0.11240868
0002f0 b0 c7 e4 3d ee c1 1f 3e 6d b2 98 be 19 57 26 be
       0.111709 0.15601322 -0.29823628 -0.16244163
000300 9f 91 07 be 22 b5 80 be 8e 48 d5 bd 13 b4 9c be
       -0.13239144 -0.25138193 -0.10414229 -0.30606136
000310 b3 a1 24 3e bf 5e b2 bd 4d a6 91 be f1 25 a2 3e
       0.16077308 -0.08709478 -0.2844719 0.31669572
000320 09 af a6 be 8f 79 04 bf 86 2a eb 3d b1 63 90 bf
       -0.32555416 -0.51747984 0.1148272 -1.1280423
000330 0e 9a bf bf 00 2e 12 c0 dd 4f 06 3e 7c 4d fd 3f
       -1.4968889 -2.2840576 0.13116403 1.9789271
000340 24 36 5b 3e 66 e5 ec 3d e3 40 f5 3e df 5e b3 bd
       0.21407372 0.11567192 0.47901067 -0.087583296
000350 b4 fa da 3f ba c3 28 3e c0 ee f1 3d 51 4c b2 3f
       1.7107759 0.16480914 0.11813116 1.392954
000360 04 68 87 3e 60 3d 21 be c2 2a 95 3e 89 a3 33 3d
       0.26446545 -0.15746069 0.29134184 0.04385713
000370 c1 9a de 3f 33 f6 b0 3f c1 fc af 3e 50 f9 42 bf
       1.7390977 1.3825134 0.34372523 -0.7616167
000380 8f 72 40 3f 31 d7 84 be 67 a5 2c 3f 28 bb f1 3d
       0.751748 -0.25945428 0.67439884 0.11803275
000390 7e 67 9f 3e cd c3 d9 bd 99 e4 e1 be 1c 81 24 40
       0.31133646 -0.10633049 -0.4411972 2.5703802
0003a0 20 a2 85 be c2 fe 5f be 7e aa 59 3e a8 bc 0f 3d
       -0.26100254 -0.21874526 0.21256444 0.035092026
0003b0 aa 60 74 3e cb 74 8e be 39 a8 b3 be a0 07 70 bd
       0.23865 -0.2782348 -0.3508928 -0.05860102
0003c0 df 38 41 3c 64 b5 72 bc 6d 08 38 bf 30 11 2b bf
       0.011793344 -0.014813755 -0.71887857 -0.668231
0003d0 a9 3d 20 40 83 3e 40 40 72 26 02 3e f8 07 81 40
       2.5037634 3.0038154 0.12709978 4.0322227
0003e0 fc 87 c8 3d 9a 75 4d 3d 99 ec 8c bf 79 e3 46 3f
       0.09791562 0.05016098 -1.1009704 0.77690846
0003f0 18 99 e6 bf bf df b3 c0 aa 45 cf 3d 7c a1 d9 40
       -1.801547 -5.6210628 0.10120709 6.8009624

hidden.0.bias f4 [128]
000000 6d 93 0f 3f 4f b4 84 3e 51 4c 0c be a0 eb 57 bc
       0.5608433 0.25918815 -0.13700987 -0.013178736
000010 a6 e7 02 3f 4d 09 fd bd 2a eb 9c 3e 8c e3 04 3e
       0.5113472 -0.123552896 0.30648166 0.12977427
000020 dc ac 05 bc a8 cf 47 bd 99 b7 5f bb df 01 36 3e
       -0.008158889 -0.04878202 -0.0034136532 0.17774151
000030 80 56 8b 3e 44 88 1f be 8b ce 56 3e 92 48 5e be
       0.27214432 -0.15579325 0.20977227 -0.21707371
000040 74 c1 9a 3d 99 b2 e2 3e d4 77 86 be 1d 7b 68 be
       0.075564295 0.44276884 -0.26263297 -0.22703214
000050 9f 4e b0 bd e8 e4 59 be d3 ea 9e be 20 32 af bd
       -0.08608746 -0.21278727 -0.31038532 -0.085544825
000060 23 e4 18 be 70 d2 17 3e cf 49 0c bf ca d4 69 bd
       -0.14930777 0.1482637 -0.5480012 -0.057087697
000070 28 ef ee 3d 2c a9 b2 3d 9c d4 bc bd e6 72 f2 3d
       0.11666709 0.08723673 -0.092202395 0.118383214
000080 f1 d3 a1 bd e2 36 f3 3e 1f 05 01 bc 07 ee 04 3e
       -0.07901753 0.4750281 -0.007874756 0.12981425
000090 7d ac e4 3e 01 5b 49 3e 4e ea 2b be 63 86 a1 be
       0.44662848 0.19663621 -0.16788599 -0.3154784
0000a0 98 83 c7 be d1 1b 36 3c d8 16 1f 3f 81 41 a7 3e
       -0.38967586 0.01111503 0.6214423 0.32667163
0000b0 55 80 16 3d df 9e a0 3e 67 3c 65 3e 98 49 b8 be
       0.03674348 0.3137121 0.22386323 -0.35993648
0000c0 3c ec b7 ba 22 b7 76 be 43 7f 03 3f ac e3 f2 be
       -0.0014032195 -0.24093297 0.5136606 -0.47439325
0000d0 04 07 99 bd e6 b9 4b 3e 2d 45 ce 3e de 74 fc 3e
       -0.07472041 0.19895133 0.40287152 0.49307913
0000e0 64 a5 ef 3e 37 74 e1 3e 26 3c be 3e 3d ab 27 3f
       0.4680587 0.44033977 0.37155265 0.65495664
0000f0 b3 ec ea be 61 8c 78 3e e6 9a 63 bd e4 21 10 3f
       -0.45883712 0.242723 -0.055567645 0.56301713
000100 9f 04 ab 3d cd 34 3d be 40 8c 93 3e 53 6e 88 3d
       0.08350491 -0.18477173 0.2881794 0.06661668
000110 d2 96 18 bf 58 f0 17 3f 5e 81 d7 bd 33 8a 9c 3d
       -0.59605134 0.5935111 -0.10522722 0.07643547
000120 af 4a 4b be ef f6 c1 3d d6 3c 93 3d d0 f1 29 3f
       -0.19852708 0.09470927 0.07189338 0.663846
000130 2f f1 fd 3e 28 17 12 be 10 28 b3 3e 7d be de 3e
       0.4959807 -0.14266646 0.34991503 0.43504706
000140 93 38 b2 be 05 af 99 be ca b4 84 3e b1 ac 07 3d
       -0.34808788 -0.30016342 0.2591918 0.033123676
000150 44 92 6b 3e 37 6a 62 be 0f 85 d3 3e 54 34 02 3e
       0.23005015 -0.2211083 0.41312453 0.12715274
000160 b7 35 0c be d5 d9 72 be 22 97 3f bc b0 45 ff 3c
       -0.13692366 -0.23715909 -0.011693748 0.03116116
000170 fa c6 8f bd de ee 9d 3e c0 43 77 3e a6 c9 d2 be
       -0.07020374 0.30846304 0.24146938 -0.4116947
000180 22 75 55 bd b5 da 08 be 94 bf ef 3d 08 f9 db 3d
       -0.05211366 -0.1336468 0.117064625 0.10740858
000190 ba 6c a1 be d7 f7 d5 be 6c e0 4e 39 c6 a2 3e 3e
       -0.31528264 -0.4179065 0.00019729295 0.1861678
0001a0 9a 4e 7b 3e 3e c9 43 be 18 fa 28 be bd 7e e5 3e
       0.24541703 -0.19119737 -0.16501653 0.44823256
0001b0 2b de 02 bf da 46 00 3f e0 1b 32 bc 70 b6 d9 be
       -0.5112025 0.5010811 -0.010870904 -0.42522
0001c0 f0 f9 62 3b ed a6 a5 be ec 40 15 3f b9 77 be be
       0.0034633838 -0.32353917 0.5830219 -0.37200716
0001d0 89 dd 0f bf 65 3f 12 3f 48 62 66 be ad 5d 9d bd
       -0.5619741 0.5712798 -0.22498429 -0.07683883
0001e0 14 38 5f bd a9 e7 1c 3f d4 f0 43 bb 0c 95 f2 be
       -0.05449684 0.61290985 -0.0029898183 -0.4737934
0001f0 70 c3 2a be dd 50 a6 be b8 80 a9 3e 68 cd c3 3d
       -0.16676116 -0.3248357 0.33106017 0.095606625

hidden.2.weight f4 [128, 128]
000000 ac a5 a1 3c 9e 15 87 3a 6e c7 64 bd 60 34 92 bd
       0.019732319 0.0010306125 -0.055854253 -0.07138896
000010 81 b1 46 bd d0 5b b2 bc 31 b6 74 3d a3 df ca 3c
       -0.048509125 -0.021772295 0.059744064 0.024764841
000020 6d 2f b4 bd 74 94 d5 bc 13 eb ce bd 4f 63 c5 bd
       -0.08798108 -0.026071765 -0.101034306 -0.09638082
000030 2a 25 c3 bd 2e 5e cf bb 26 31 20 3b 50 b3 f0 3c
       -0.09528573 -0.0063283658 0.0024443357 0.029382378
000040 72 fa cb 3c 6b f6 b2 3c 20 02 b5 3b b2 08 c4 3c
       0.024899695 0.021846017 0.005523935 0.023929927
000050 5c f3 3d bd ba 76 bf bc f0 6e 05 3d 18 00 3f 3c
       -0.046374664 -0.023372043 0.0325765 0.011657737
000060 67 b5 a2 3d 8f b9 9d 3d 34 55 fc 3a 2a 28 ab bd
       0.07944756 0.07701408 0.0019251467 -0.0835727
000070 df d9 6a 3d 14 26 d1 3c db 2b 43 3d 95 e1 cf 3c
       0.057336684 0.025530852 0.047649246 0.02537612
000080 c4 e5 c4 bd 82 91 88 bd 6b c7 71 bd ee 39 a0 3c
       -0.09614137 -0.066683784 -0.05902807 0.019558873
000090 ff aa d6 bd f8 69 30 3c c5 c6 1e bd 8b 6b e7 bd
       -0.10481834 0.010767452 -0.03876378 -0.11299809
0000a0 3e 3e 1f 3d a8 7a 86 bd ac d0 15 bd fa f3 5f bd
       0.03887772 -0.065663636 -0.036575958 -0.054676034
0000b0 95 f1 a2 3c 3a 57 c0 3c 40 ef 08 bd 95 c9 85 3b
       0.019890586 0.023479093 -0.03343129 0.0040828683
0000c0 46 5a 2d bd 5d ee 0f bd db bf 8f 3d b1 36 cf bb
       -0.04232242 -0.03513943 0.070190154 -0.0063236584
0000d0 52 ea 69 3d 2c ee 92 bd 2e 8d c9 bc 5a c6 d9 bc
       0.05710823 -0.07174334 -0.024603453 -0.02658384
0000e0 11 e7 b5 bd c4 d6 d5 3b 57 4f 22 3d f5 26 89 bc
       -0.08881963 0.006525846 0.039626446 -0.016742209
0000f0 f8 0a 4c bd be 88 05 3d 4e a2 ba bd b6 e0 a4 bd
       -0.049815148 0.03260111 -0.091129884 -0.08050673
000100 8b 70 83 bd 6d ab 85 bd 6f 08 9a bb e1 62 83 3d
       -0.0641795 -0.065268375 -0.0047007124 0.06415344
000110 41 08 85 3c b3 a4 84 bd df b4 c9 3c 34 82 59 3d
       0.016239287 -0.064767264 0.024622379 0.053102687
000120 f8 b2 ce bc 84 83 5c 3d 1e c1 d0 bc 61 34 cc bc
       -0.025231823 0.05383636 -0.02548271 -0.02492732
000130 0d 74 3f 3d 59 9a 6d bd 43 dc 95 bd 1a 80 49 3b
       0.046741534 -0.058008526 -0.07317402 0.003074652
000140 fe f2 31 3d 29 f4 f0 bc a4 24 b4 bd 41 42 ed bd
       0.043444626 -0.0294133 -0.08796051 -0.115849026
000150 5d af 2c 3d 5a f9 c0 bd 56 55 31 bb 0d 56 a8 3d
       0.042159427 -0.0942256 -0.002705892 0.08219538
000160 6d 77 19 3d c8 c7 a9 bd 31 df 87 bd 9f ac b1 bc
       0.03746741 -0.082900584 -0.06634367 -0.021688757
000170 0a cd ab bd 23 73 81 3d f7 88 1e 3b 37 b2 df 3c
       -0.083887175 0.06320789 0.0024190524 0.02730666
000180 7f 4d 8a 3d a2 3f 47 3d f0 3b b7 3c 62 56 3d 3d
       0.067530625 0.04864467 0.022367448 0.04622496
000190 0a 93 73 bd 85 93 b1 bd a2 e9 1a 3c 74 8e a6 bc
       -0.0594664 -0.08670715 0.0094551165 -0.020331599
0001a0 46 cf 8b bd dd 66 c3 3c 8b e9 b2 bd 07 86 70 bd
       -0.06826644 0.02385276 -0.08735951 -0.05872157
0001b0 d3 82 6b 3d 7d da 8f 3d 0c 9a 8a bc 46 f4 b6 bd
       0.05749781 0.07024095 -0.016919158 -0.0893331
0001c0 c9 f5 43 3d d8 75 74 bd 57 4f 18 3d f0 2e 97 3c
       0.04784182 -0.059682697 0.03718504 0.018454999
0001d0 a6 17 77 bd ff f6 58 3d 41 b6 ab 3d 5c d6 a0 bd
       -0.060325287 0.05296993 0.083843715 -0.07853386
0001e0 53 10 fb 3c 23 d0 ba bd 2b 82 9b bd f2 4c 81 bd
       0.030647432 -0.0912173 -0.07593187 -0.06313504
0001f0 50 53 ac bd 0f a2 d1 bd f1 22 a8 bd 84 96 28 bd
       -0.08414328 -0.10235988 -0.082097895 -0.041159168
000200 ac c6 15 3d 3b 76 48 3b d7 84 7b 3d 2c ba ac bd
       0.03656642 0.003058805 0.061405983 -0.08433947
000210 7b 3c 15 3d 60 47 85 bc fb c3 5a 3c fe 49 d7 3b
       0.03643463 -0.016269386 0.013352389 0.0065701
000220 17 bf ac bc 3e f6 6d bd 6c c8 7c bd 72 56 99 bc
       -0.021087212 -0.058096163 -0.061714575 -0.018717978
000230 f7 9d 07 3d 78 02 f9 bd 64 92 da 3c 70 cf 9a bd
       0.03310963 -0.12158674 0.026681133 -0.07559097
000240 10 1d dc bb 31 64 34 3d 3a cf 1b 3d 4c bf a2 bd
       -0.0067173317 0.044040862 0.038039424 -0.07946643
000250 c8 fb 96 bd a4 e2 96 bd 80 75 1d bb 5a 20 97 bd
       -0.07372242 -0.07367447 -0.0024026334 -0.073792174
000260 c8 e8 f2 bc f6 56 2d 3c c8 7e 76 bd 83 41 5e 3d
       -0.029652014 0.010579815 -0.0601795 0.054261696
000270 94 2f 55 b9 5a b1 62 3d 8d 22 be bd e1 be d0 bd
       -0.00020330987 0.055344917 -0.09283934 -0.10192657
000280 42 f9 00 3d 67 6b 04 bd 32 de 12 3d 54 ef a3 bc
       0.03148771 -0.03232899 0.035856433 -0.020011581
000290 c5 75 3e bd af 1f 90 3d 22 98 62 bd f7 16 ed bb
       -0.046499033 0.07037293 -0.055320866 -0.0072354036
0002a0 a5 78 df 3c dd dd d6 bc 53 6f 0c bc ba 36 37 bd
       0.027279207 -0.02622884 -0.008571464 -0.044729926
0002b0 fb 64 13 bd e0 d2 c4 bd 48 ba 27 bd ac fb 8b 3b
       -0.035984974 -0.09610534 -0.040949136 0.004271945
0002c0 8e 43 b2 bc 3a 4c 63 bd 3f e7 1f bd 32 bd c6 bd
       -0.021760728 -0.055492617 -0.039038893 -0.09704055
0002d0 0c ba 6c bd a7 0e c7 bd ec d9 ad bc 77 a9 80 ba
       -0.057794616 -0.097195916 -0.021222077 -0.000981613
0002e0 27 9f 39 3d 01 51 34 bb 4e 6c 67 3d 8b 5a 99 bd
       0.045317795 -0.0027514102 0.05649977 -0.07487973
0002f0 bb 48 bc bd a1 79 c7 3c 9f d3 32 bc f7 39 9d 3d
       -0.0919356 0.02434999 -0.010914712 0.076770715
000300 2b d0 16 3d e8 61 ad 3b 87 78 04 be 34 33 e3 3c
       0.03681962 0.0052912124 -0.12936603 0.027734376
000310 c2 ea 18 3d 2c f6 ac bd d8 8b 85 3c aa 2b e3 3c
       0.037333257 -0.08445391 0.016302034 0.027730782
000320 60 63 3c 3b 4b 54 5b bc c6 2e 8c 3d 06 15 d3 3c
       0.0028745756 -0.013386796 0.06844859 0.02576686
000330 37 7e c0 bd f0 9c 91 bc ef eb c8 bb 0b b1 05 be
       -0.093990736 -0.017775029 -0.006131641 -0.13055818
000340 58 68 0f 3d 46 5a 06 3d d8 57 74 bd c0 e5 1a 3d
       0.03501162 0.032800935 -0.059654087 0.037816763
000350 9f 24 2e 3c 1c 46 88 bd b0 51 b5 bd e4 75 d6 bc
       0.010628848 -0.06653997 -0.08853471 -0.026179262
000360 b5 e0 26 bc a0 00 4f 3d 7a 9a 2a bd 7e 4e e7 3c
       -0.01018541 0.050537705 -0.041651227 0.02823567
000370 b1 46 da 3b 83 ed d6 bd 17 ac c7 bc cf 7e 0b 3c
       0.006661259 -0.104945205 -0.024374051 0.00851412
000380 a8 01 ba bc 2b 2f 00 be 53 4c 85 3d a8 dd 47 bc
       -0.022705868 -0.12517993 0.06508698 -0.012198843
000390 82 72 35 bd 8d 64 f6 bc c5 e1 ec 3c 52 2c 5e bc
       -0.044298656 -0.030077243 0.028916249 -0.0135603715
0003a0 1f 5a 85 bd 0e bb 98 bd b0 cc d7 bd 82 de 5b bd
       -0.0651133 -0.07457553 -0.10537088 -0.053678997
0003b0 a0 3c ee bd f6 3d 8a bd ba 63 2e bd 68 39 b6 3c
       -0.11632657 -0.06750099 -0.042575575 0.02224417
0003c0 9b 0f 73 bd 60 22 ac bd 67 96 94 bd 46 a9 62 3d
       -0.059341054 -0.08404994 -0.072552495 0.055337213
0003d0 b2 d8 a4 bd ed 6d 32 bd d7 2d 7f 3d 1f 41 2f bb
       -0.08049144 -0.043561865 0.062299576 -0.0026741696
0003e0 db 36 d3 3c ea be df bd d6 fc 9d bd dc 7e 9f bc
       0.025782993 -0.10925086 -0.0771424 -0.019469671
0003f0 70 01 ad bd df 04 e0 bc 41 61 ab bd fa 43 04 bc
       -0.0844754 -0.027346073 -0.08368159 -0.0080728475

hidden.2.bias f4 [128]
000000 30 c2 c2 bd ef fc e2 bd af 3e 1a bd e7 4e 1c 3f
       -0.095096946 -0.110833995 -0.037657436 0.61057895
000010 a8 b8 b5 bd 5e db ef bd 00 e0 66 bd 1e bd 02 3e
       -0.08873111 -0.11711763 -0.056365967 0.12767455
000020 ab 78 a5 bd 74 21 3a 3f 36 fe cb bd 3b 13 b5 be
       -0.08079656 0.72707295 -0.09960596 -0.35366234
000030 43 72 62 bd 3c 64 03 be 7b cf e0 3c 49 7c 24 be
       -0.05528475 -0.12831205 0.027442684 -0.16063036
000040 1d 6c 20 3f a4 4c 22 3f a9 2e b2 3e 86 a8 36 3b
       0.6266497 0.63398194 0.34801224 0.0027871444
000050 8a 55 6c bd 8a c1 a2 bd 1c ed 63 3e 48 33 50 3f
       -0.057698764 -0.07947071 0.22258419 0.8132825
000060 a8 de 92 bd 89 97 03 be 8d 02 37 bd c3 eb c4 bd
       -0.071713746 -0.12850775 -0.044680167 -0.096152805
000070 20 8f 25 be 9f be 89 3e e5 4b b9 ba 7b 0b b2 bd
       -0.16167879 0.26903245 -0.0014136998 -0.08693596
000080 fe 29 30 3f 8b 09 ad 3e a3 80 d2 bd 7b f6 0e 3f
       0.68814075 0.33796343 -0.10278442 0.5584485
000090 59 c6 e2 3e 03 57 47 3b bc 8b c3 bd 58 ea 28 3f
       0.44291952 0.0030416853 -0.095481366 0.6598258
0000a0 ba 8c 03 3f 73 da 7c bd c2 1c 10 be ec 2d 97 bd
       0.51386607 -0.061731767 -0.1407347 -0.07381806
0000b0 db 96 99 bd 14 16 3e be 21 88 d4 bd 94 d4 ba bc
       -0.074994765 -0.1856311 -0.10377527 -0.022806443
0000c0 90 0a fd bd 54 94 0e 3d ec 50 cd ba b8 02 1c 3e
       -0.1235553 0.034809425 -0.0015664375 0.15235412
0000d0 68 1c 47 bc 0d d7 27 bd 07 7b 9d bd 9e 6f 83 bc
       -0.012152769 -0.040976573 -0.07689481 -0.016044434
0000e0 7c 4d 75 3c c5 61 69 3f 14 79 11 3f e6 87 b9 3c
       0.014972087 0.9116481 0.56825376 0.02264781
0000f0 71 f0 14 3e a9 b0 1f 3f a6 6a 7b bd 48 1f 52 3f
       0.14544846 0.62378937 -0.061381005 0.8207898
000100 56 98 d7 3e e3 ed 77 bb 9e ae 86 3f 17 33 87 3c
       0.4210841 -0.0037831 1.0522039 0.016503854
000110 a2 84 8d 3e 0e bb fb 3e 68 49 83 be 92 25 26 3d
       0.27640253 0.4916615 -0.25641942 0.040563174
000120 23 9f 1a bd d8 76 08 bd aa be 0b bd 1f 44 73 3f
       -0.03774942 -0.033316463 -0.03411738 0.9502582
000130 3e 15 75 3d a3 b4 83 bb 83 c9 4b 3f 74 0d 0d be
       0.05983471 -0.0040193363 0.7960436 -0.13774663
000140 81 76 ac bd 8b 07 19 bd 74 e1 1a be 13 95 96 bd
       -0.0842104 -0.03736071 -0.15125066 -0.073526524
000150 38 7e 51 bd 8e 0f 2b bd 7f 5b 80 be 38 d4 81 3f
       -0.051145762 -0.04176288 -0.25069806 1.0142889
000160 f6 70 b4 3e b1 12 18 3e 4f ef 0c be 9b e2 4e bd
       0.35242432 0.1485088 -0.13763164 -0.050509077
000170 da 9d 1e 3f 7e 6e be bd c5 0a e1 bd b0 51 d2 bd
       0.6195961 -0.092984185 -0.10988382 -0.10269487
000180 f6 1b 0a be 73 da 6f 3f 16 1a 9a 3f 6e f5 9c bd
       -0.13487229 0.936927 1.2039211 -0.076639995
000190 f6 f1 68 bd 61 5d 54 3f b3 f0 72 3c 95 b2 01 be
       -0.056871377 0.82954985 0.014827895 -0.1266578
0001a0 c9 66 04 3b c8 0a 10 3f f3 93 57 3e 15 94 4b be
       0.0020202866 0.5626645 0.21052532 -0.19880708
0001b0 34 ea 07 be 9b 41 a4 3f c3 c9 8f bd f8 46 b0 bb
       -0.13272935 1.2832521 -0.07020905 -0.005379554
0001c0 3a 53 ec bd 26 0d 50 bd 45 b6 f4 bd 6d 78 7f bc
       -0.11539312 -0.05079379 -0.11948828 -0.015592677
0001d0 5d 77 6a 3c 2e f1 31 be d1 91 2f be bc a4 70 bd
       0.014310685 -0.17377159 -0.17145468 -0.058750853
0001e0 73 38 12 3d b6 2f b0 3e 18 8c b1 bd 70 15 93 3d
       0.035698365 0.344114 -0.08669299 0.07181823
0001f0 c9 5e 53 bd 66 ae 18 3c a4 0e 86 3e f0 b4 48 bc
       -0.051604066 0.009318924 0.26183045 -0.01225017

value_stream.0.weight f4 [64, 128]
000000 04 b9 cc 3c c1 58 39 3d ce 64 be bd ef bd 5f bd
       0.024990566 0.045250658 -0.09296571 -0.054624494
000010 e0 c7 a6 bb 13 ea 88 3d 2f 01 98 3d f1 b6 b6 bd
       -0.005089745 0.06685271 0.07422101 -0.08921612
000020 6e 87 9c bd ff cc ee bd ad 84 05 3d 7d bb 34 bd
       -0.07643019 -0.11660194 0.032597233 -0.044124115
000030 aa 89 23 3d b8 16 c1 bd ce ca 59 bd 85 f4 47 3c
       0.03992621 -0.094281614 -0.053171925 0.012204294
000040 b1 47 0c bd 5b 85 1e be 35 63 d7 bc 5f d7 26 3d
       -0.034248058 -0.15480559 -0.026292423 0.040732738
000050 b6 8e 53 bd 64 55 94 3d 12 3c 98 3c 3d ff 9a bd
       -0.05164977 0.072428495 0.018583331 -0.07568214
000060 34 28 1d 3b e0 01 10 bd 4c 88 3f bd 80 14 8c 3d
       0.0023980262 -0.03515804 -0.046760842 0.068398476
000070 8e 06 5c bc a5 a8 70 3d d1 ad ac bd 72 14 d6 3d
       -0.013429297 0.058754582 -0.0843159 0.104531184
000080 05 bb f5 bc 87 f9 bc bd f8 ab 35 3d 03 7a 59 bb
       -0.029996404 -0.09227281 0.044353455 -0.0033184297
000090 68 a4 27 be 36 73 0b bd 0c b2 88 bd 0c b2 ef bd
       -0.1637131 -0.03404542 -0.06674585 -0.117038816
0000a0 7f 3f f3 bd 28 d4 3e 3d 65 47 bd bc 83 28 ae bd
       -0.11877345 0.046589047 -0.023105333 -0.08503821
0000b0 7d 5e 9c bd f3 58 8a 3c 90 e2 90 bd 30 10 29 bd
       -0.0763521 0.016888117 -0.07074463 -0.041275203
0000c0 aa 1e 5b 3d 69 c3 c4 bb 77 be 87 bd 9f f9 1d bd
       0.05349604 -0.00600474 -0.06628125 -0.038568135
0000d0 a8 d9 74 3d db f5 f0 bd 3b 04 64 bd e0 6b 10 3c
       0.059777886 -0.11765643 -0.055668097 0.008814782
0000e0 e6 ce 6e bd e8 a8 60 bd 51 5f ab bc f6 6f 36 3d
       -0.058302782 -0.05484858 -0.020919474 0.044540368
0000f0 31 9e 10 bd ec 2f 60 bd 2a b9 29 3d 80 b9 23 be
       -0.035307113 -0.0547332 0.04143635 -0.15988731
000100 82 02 6f bd 38 45 f3 3c 0f 89 bb bd 55 f2 8f bd
       -0.058352 0.029696092 -0.09157001 -0.07028643
000110 a8 e8 c6 3c 42 85 e8 bc c7 7e 0c bd fb 78 b5 bd
       0.024280861 -0.028383855 -0.03430059 -0.08860966
000120 31 35 42 3d 3c 1b 8f bd dd 6d e5 3c a8 82 09 be
       0.04741401 -0.069876164 0.028006488 -0.13428748
000130 ff 25 95 bd 9e 70 a1 3d b6 80 f0 bd e0 e6 52 3d
       -0.07282638 0.07882808 -0.117433 0.05148971
000140 b9 70 12 bc 88 d2 d8 bc 58 01 91 3c 1d 3b a6 3d
       -0.008938008 -0.026467577 0.017700836 0.08116744
000150 42 4c bd 3b e2 51 09 3d 9f 1f 24 bc 28 18 21 bd
       0.005776913 0.033525355 -0.010017305 -0.039329678
000160 4e c9 30 be a9 b4 e2 3b 20 c7 e9 bb 0d 7b 80 3d
       -0.17264292 0.006918509 -0.0071343333 0.0627347
000170 de 35 9a bd 28 6f 0b 3d a1 97 b8 bd 63 27 40 bd
       -0.075298056 0.034041554 -0.09013296 -0.046912562
000180 7e 2a 7c bc d2 15 92 bd 38 66 d5 bc 72 3f 2e 3d
       -0.01539099 -0.07133068 -0.026049718 0.042540975
000190 05 64 50 3b 3d 92 14 bd 55 d5 da 3b 23 64 59 bd
       0.0031797898 -0.036272276 0.006678263 -0.053074013
0001a0 72 27 44 3d 0e 04 a7 bd 8e 8f 80 bd a3 74 19 be
       0.04788918 -0.0815507 -0.06277381 -0.149859
0001b0 3b ff 9d bd e0 84 e2 bd 74 cf 90 3d aa 5f 32 3d
       -0.07714697 -0.110605 0.070708185 0.043548264
0001c0 aa 67 4d 3d 1d 79 9a bd c8 00 18 bc 32 ef 14 bd
       0.05014769 -0.07542632 -0.00927753 -0.036360927
0001d0 9f f6 36 bd 1e 3f 2c bd eb 2e 46 bd 30 3d b5 3b
       -0.04466879 -0.04205238 -0.04838459 0.0055309758
0001e0 d5 c9 a5 bd f4 13 68 bb 77 b7 8c bd b4 8a 39 3d
       -0.08095137 -0.0035412284 -0.06870931 0.045298293
0001f0 fa d0 96 bb 68 8b 64 3d 59 b2 9d 3d bf f4 35 3d
       -0.0046025487 0.05579701 0.07700033 0.04442286
000200 0f 07 fc 3c 33 3f 39 3d f2 f9 5f 3f ab 2b 3e 3e
       0.030765085 0.045226287 0.8749076 0.18571346
000210 b9 e5 93 3d 44 32 79 3f 0c dc 19 bd 81 3d 55 c0
       0.072215505 0.97342324 -0.03756337 -3.331879
000220 64 a3 62 bb 22 0e 97 3e 3c 21 fb 3e 35 e8 de bf
       -0.0034582252 0.2950297 0.49048793 -1.7414614
000230 f4 39 ee 3c a1 4b 16 3f 16 4b 2b 3f df 12 bb 3e
       0.029080369 0.5870915 0.6691145 0.36537835
000240 b3 c8 60 3e f7 c8 33 bd e1 1d f7 3e de 0b 03 bd
       0.2195156 -0.043892827 0.48264983 -0.03199374
000250 63 c1 95 3d 97 88 c1 3c 8d 5b 56 c0 ae 02 fe 3d
       0.07312276 0.023624701 -3.3493378 0.12402855
000260 33 04 1d 3d a4 d3 1e 3f fa 1c 14 3d 10 a7 cd 3d
       0.038334083 0.6204169 0.036160447 0.1004163
000270 6a c3 14 be 56 9a 19 c0 b1 5e 5b bd d3 5b b4 bf
       -0.1452767 -2.400045 -0.0535571 -1.4090523
000280 1b 89 5f 3e e6 ba 63 c0 cf 3e e6 3e 64 f1 91 3c
       0.21829645 -3.5582824 0.44969794 0.0178153
000290 e2 39 d5 bd dd 54 a3 3e 1c ef 03 bd 41 5b 3d bd
       -0.10411431 0.31900683 -0.032210454 -0.046229605
0002a0 55 67 ca 3c 07 af cf bd f5 1e ad 3e 57 63 f4 3c
       0.024707476 -0.10140806 0.3381268 0.029832525
0002b0 ad 5f 10 3d 8b c1 05 3f a8 ee 10 3c ed 8e 2f 3c
       0.035247494 0.5224845 0.008845963 0.0107152285
0002c0 d1 8f fc 3d 21 ea 13 be 02 7a 8f bc af 01 ca 3d
       0.12332118 -0.14444782 -0.017514233 0.09863602
0002d0 26 3d 4d bd 69 11 45 3f 29 fe eb 3d 9a cd af bc
       -0.050107144 0.7697969 0.115230866 -0.021460343
0002e0 2d 05 c4 3d cb 67 80 3d c8 92 ec bc 6d 23 06 bd
       0.095713 0.06269797 -0.028878585 -0.03274863
0002f0 49 1a ae 3e fb e9 10 3d f0 08 93 bd 72 43 81 3d
       0.3400443 0.03537939 -0.07179439 0.06311692
000300 2c a5 85 3e ef 89 a5 3c dc 1b 0f be bd 65 04 3e
       0.2610258 0.020207373 -0.13975471 0.12929435
000310 d1 c5 62 c0 cc 31 87 3d 61 5f 00 bf 7f fa 4b 3e
       -3.5433238 0.06601295 -0.50145537 0.19919775
000320 81 d8 96 3f 46 40 80 bd c3 cf db bf b3 17 2a 3e
       1.1784822 -0.06262259 -1.7172779 0.16610603
000330 d5 5f e2 3e b6 0e 9c 3d 2e 79 62 3d 3a e1 52 3f
       0.4421374 0.076199934 0.055291347 0.8237492
000340 35 c6 20 3d 3a 50 92 3d 44 b0 5a ba df ad a8 bc
       0.039251525 0.07144208 -0.00083423057 -0.02059072
000350 2b 4e 80 bd 00 d5 27 bb a4 d1 7e 3f bf 76 63 3e
       -0.06264909 -0.0025609136 0.99538636 0.22213267
000360 f0 d1 67 3d 4c d7 76 3e 6b ac 97 bd b5 43 0b 3d
       0.056596696 0.24105567 -0.07405933 0.034000117
000370 03 4b fa 3d 95 7d f3 3e bb d4 20 3f 7a 49 a9 bd
       0.122213386 0.4755675 0.628246 -0.08265968
000380 81 38 26 3f ab 04 5b 3c 28 50 7a 3d c0 49 c1 bc
       0.6492997 0.013367812 0.0611116 -0.023594737
000390 07 bc ad 3e eb 97 7d 3e 31 4b 35 3f f6 d2 d3 3e
       0.33932516 0.24764983 0.7081786 0.41371888
0003a0 44 e2 3d 3d 1b 89 b8 3c 80 eb 1c bf 1f f1 74 3f
       0.04635836 0.022526314 -0.61296844 0.9568042
0003b0 08 1d c0 bf e1 1c 5b 3d 62 5c cc 3e 4f 10 96 3d
       -1.500886 0.053494338 0.39914232 0.07327329
0003c0 ae db e4 bc e7 ca 37 3f de 35 ec bc fb be 2e bd
       -0.027936783 0.7179398 -0.02883428 -0.042662602
0003d0 80 00 fe 3a 28 19 dd bc d5 bb b8 3e bc e7 52 bd
       0.0019378811 -0.026989534 0.36080804 -0.05149053
0003e0 c1 95 b6 3c 88 7d 88 3c 5e 14 8e bd 83 0e b1 3e
       0.022288205 0.01666142 -0.069374785 0.34581384
0003f0 53 56 89 bb d2 d1 a2 bd 3f b0 60 c0 33 d0 6f 3d
       -0.004191199 -0.07950176 -3.5107572 0.058548164

value_stream.0.bias f4 [64]
000000 10 a5 e9 bd 7c 67 9f 3e 9f f2 7a 3e 61 48 12 3e
       -0.11408436 0.3113364 0.24506615 0.14285423
000010 8d eb a9 3c 2a f0 2e 3d da 68 aa bc ff 02 2a 3e
       0.020742202 0.042709507 -0.02080195 0.16602705
000020 77 89 e6 3d de 92 25 3f 48 ed 9c 3e 1a 5f 2a bd
       0.11256688 0.64677227 0.3064978 -0.041594602
000030 a0 35 b6 3d cb c7 a0 bd 7e 56 82 3e ec 46 e5 3d
       0.08896947 -0.078506075 0.25456613 0.11195168
000040 ed c3 4e 3f 9c 28 a0 3e fe 1b a3 3e 7b 8e 0a 3f
       0.8076771 0.31280982 0.31857294 0.5412366
000050 34 94 db bc 78 1c 59 3f 55 90 ad 3e 3f 64 54 3f
       -0.026804067 0.84809065 0.3389918 0.82965463
000060 a6 f1 c3 bc ce 40 62 bd 31 ac 8f 3d f9 b8 a5 3e
       -0.023918938 -0.055237584 0.07015265 0.32367685
000070 4d ea 2a be 80 5d 38 3d 19 cf 54 bd d1 cf 98 3e
       -0.16690941 0.045011044 -0.051955316 0.2984605
000080 02 d6 64 3f 0e 8b 47 3d bf 0d 71 bd 49 b9 ad 3c
       0.8938905 0.048716597 -0.058851 0.021206515
000090 a4 c2 aa 3e b3 21 93 bd e2 ae 70 3d 16 05 08 3e
       0.33351624 -0.07184162 0.05876053 0.1328319
0000a0 5b d1 f1 3e da 36 11 3d 97 9c e7 3e d7 44 b4 3e
       0.47230038 0.0354527 0.45236656 0.3520877
0000b0 77 7d 8c bc 60 fa 98 3c 1d 87 57 bd d4 a5 da bc
       -0.01714967 0.018674076 -0.05261909 -0.026690401
0000c0 36 9e 57 3f 8e ec 56 3f 6b dc 30 3e b9 ef 72 3e
       0.84225786 0.83954704 0.17271583 0.2372426
0000d0 d4 39 27 be 25 ea 5f bd bb f5 99 3d 83 fa da 3e
       -0.16330653 -0.054666657 0.075175725 0.4276925
0000e0 0f 8f 60 3f 03 81 29 3f 65 6e 80 3e 26 2b b6 3e
       0.8771829 0.6621248 0.25084224 0.35579795
0000f0 9b 6e 2a bd 88 94 68 3e 2d fb 44 bd 3f 64 b4 3e
       -0.041609388 0.2271291 -0.048091102 0.35232732

value_stream.2.weight f4 [1, 64]
000000 08 a0 29 bb 3c 6f 8d bf 06 e9 b1 bf c3 3f 8e bf
       -0.002588274 -1.1049571 -1.3899238 -1.1113209
000010 f6 fa b6 3b 94 18 f7 bd 20 d3 4d 3d 80 77 a5 bf
       0.005584116 -0.12065235 0.050250173 -1.2927094
000020 44 87 ac bf 15 7b e7 bf 2b fa ab bf d2 3b f0 3d
       -1.347878 -1.8084437 -1.343572 0.1173016
000030 bb fb 8b bf df ba 7d 3c d9 f7 a0 bf 9d 0e 83 bf
       -1.0936197 0.015486448 -1.2575637 -1.0238835
000040 76 53 2c c0 eb a3 a2 bf 90 61 95 bf f8 c1 38 bf
       -2.692594 -1.2706274 -1.1670399 -0.7217097
000050 f3 74 b5 3c d5 79 3b bf fa e5 87 bf e0 82 3e bf
       0.022150492 -0.73232776 -1.0617058 -0.7441845
000060 62 de da bd 2f 48 81 bb 7b 9c 74 3d 21 66 3f 40
       -0.106869474 -0.0039453725 0.059719544 2.9906085
000070 6e 64 83 40 05 15 fc 3c e1 1a c1 3c fd 27 9f bf
       4.1060095 0.030771742 0.023572387 -1.2434078
000080 eb c4 33 bf 64 f0 5f 3d d9 65 47 3d f5 cd 71 3d
       -0.7022235 0.054672614 0.048681114 0.059034307
000090 d5 72 3e 40 96 2b 9f 3d cb bb e5 3d 64 08 95 bf
       2.9757588 0.07771985 0.11217459 -1.1643186
0000a0 79 96 3d bf 42 3b 74 3d d2 91 39 bf c7 eb 2d 40
       -0.7405773 0.059626825 -0.7248813 2.7175157
0000b0 7c 22 83 bb d8 63 00 3d 42 4e 7b 3d a2 b9 4a 3d
       -0.0040019136 0.03134522 0.06135393 0.04949344
0000c0 5c 10 31 bf 2f 7b 44 bf 21 15 a7 bf ef 5f 82 bf
       -0.6916559 -0.76750463 -1.3053323 -1.0185527
0000d0 66 23 e0 3c db 96 8f 3d 9e 16 9c bf 62 88 35 40
       0.02736063 0.07011195 -1.2194402 2.8364491
0000e0 54 4b 3b bf 5f 9b 1f bf d4 3b 82 bf 86 36 aa bf
       -0.73161817 -0.6234645 -1.0174508 -1.3297889
0000f0 ec d3 23 3c da 1e 90 bf 6e 58 e0 3c 4f 50 44 40
       0.009999257 -1.1259415 0.027385917 3.0674016

advantage_stream.0.weight f4 [64, 128]
000000 38 55 63 3c 94 47 9c ba ff 71 35 be 81 af af bd
       0.013875298 -0.0011923187 -0.17719267 -0.085783966
000010 30 3d 2e bc a3 39 31 bd 1a 2e 84 3d d1 42 6f bd
       -0.010634705 -0.043267857 0.06454106 -0.05841333
000020 be ab a2 3b 00 87 0b 3e bc bc d0 bc 76 7e 6b 3c
       0.004964321 0.13625717 -0.02548062 0.014373412
000030 4a d7 98 bd 19 35 e1 bd 0d 76 2c 3e b5 7a cb bb
       -0.07462938 -0.10996456 0.16841908 -0.006209696
000040 89 36 ec bb 9f c5 81 bc 4a fb 21 be 04 6e a5 bd
       -0.0072086495 -0.015841303 -0.15818515 -0.080776244
000050 dd 89 a4 3d 35 32 98 bd 1f 99 cd bd 37 c9 6b 3d
       0.08034108 -0.07431451 -0.10038971 0.05756494
000060 d2 f0 f5 3c 24 62 3a be 08 52 f6 3c a3 c4 49 bd
       0.030022059 -0.182015 0.030068412 -0.049259793
000070 90 14 e4 bd 91 f1 41 bc 3e 42 a5 bd 10 86 d1 bd
       -0.111367345 -0.011837379 -0.08069275 -0.102306485
000080 06 29 26 be f2 db f0 bc 84 e5 dd bd f7 c7 0e 3c
       -0.16226587 -0.029401753 -0.10834792 0.0087146675
000090 ac be 7b bd 15 41 9d 3d 4f c1 ad 3d b1 ad cd 3d
       -0.061461136 0.07678429 0.08484136 0.10042895
0000a0 15 ab c3 bb 10 ff bd 3c d0 a6 74 3d 26 6b 1c bd
       -0.0059713223 0.023192912 0.059729397 -0.038188122
0000b0 94 7e 78 3d e6 b9 77 bd 38 a3 85 bd fc bf 66 3d
       0.06066759 -0.06048002 -0.06525272 0.056335434
0000c0 97 ed cb bd 96 f6 f5 bc 40 e6 c9 39 02 66 58 3b
       -0.09957426 -0.030024808 0.00038509257 0.0033019786
0000d0 a0 f7 95 3d 54 dd 27 be a3 99 93 bd a6 f9 00 3d
       0.07322621 -0.16393024 -0.07207038 0.031488083
0000e0 d8 78 39 bc 4b 00 9c bd 9c cf 83 bc af 3e 47 bd
       -0.011320315 -0.076172434 -0.016090207 -0.048643764
0000f0 ed 24 9c be f7 a3 64 bb 6c e3 8b 3d ae 73 93 bd
       -0.30496922 -0.003488777 0.06830487 -0.071997985
000100 12 da de bb d6 0d 9a bb 7f 70 97 bc d1 7d 05 be
       -0.0068008984 -0.0047013564 -0.01848626 -0.13036276
000110 dd 8d 01 38 1f 42 d0 bb 46 e4 7f 3c 5e 84 58 be
       3.0888117e-05 -0.0063555385 0.0156183895 -0.21144244
000120 62 f6 96 bd a6 ae e5 bc 2b 85 8a 3d ea 60 7e bd
       -0.073712125 -0.02803738 0.06763681 -0.062104143
000130 f8 52 85 bd 13 dc 58 bd 3a c1 27 bd 6b 7d a4 bd
       -0.06509966 -0.052944254 -0.04095576 -0.08031734
000140 30 85 f3 bb 2d f2 a5 3d 12 48 93 bd b0 17 9e 3b
       -0.0074316487 0.08102832 -0.07191481 0.004824601
000150 ec fe 91 3c f7 61 9a bd 88 8e f2 3b c0 57 f0 bd
       0.017821752 -0.075382166 0.007402245 -0.11735487
000160 5d ee be bc 0f bf 4b 3e 2e 3c 48 bb 4d 5d 35 3c
       -0.02330702 0.19897102 -0.0030553448 0.011069608
000170 cc 94 8a 3d bb ba 9e bc 9c 6b 87 bd 8b 2f aa 3d
       0.06766662 -0.01937615 -0.06612322 0.08309849
000180 6c fb 12 be 61 18 32 bd b5 c1 28 bd bb 8d fe ba
       -0.14353722 -0.04348028 -0.04120036 -0.0019420901
000190 57 5f 04 3e 0a a7 b5 bd 59 46 20 bd d3 cb b3 3c
       0.12926994 -0.08869751 -0.03912959 0.021947777
0001a0 f8 52 d2 bd c4 3a 16 3d 21 af c1 3b 87 d7 a2 bd
       -0.10269731 0.036677137 0.0059107696 -0.07951265
0001b0 9a 30 8a bc 61 b2 f1 3c 5a ce 45 be d7 11 36 3d
       -0.016868878 0.029504003 -0.19316998 0.044450607
0001c0 4e 6a 03 bd d8 b9 df bc 04 29 6f bd c5 cd aa bd
       -0.032083802 -0.027310297 -0.058388725 -0.08340029
0001d0 a0 05 13 bd d5 49 1d be db 11 fb bd c8 e9 00 3d
       -0.035894036 -0.15360196 -0.12259265 0.03147295
0001e0 8b 84 ee bc c6 23 48 bd c0 e8 0f bd c4 90 25 bd
       -0.029115936 -0.04886224 -0.035134077 -0.040421262
0001f0 aa d1 98 bd a0 c0 c2 3c a1 c6 8e bd 7b 16 64 bd
       -0.07461865 0.023773491 -0.06971479 -0.0556855
000200 5c 27 7d 3d 23 ee 45 3d 0c 3e f0 bd 1a c5 bc 3d
       0.061805114 0.048322808 -0.117305845 0.09217282
000210 a0 73 8d bb 37 09 da ba 8e a3 e7 3b b5 f7 6c be
       -0.004316762 -0.0016634826 0.007069058 -0.23141368
000220 47 cd e5 bb 62 79 7b 3d 52 38 f8 b8 b0 1a 95 bd
       -0.0070129964 0.061395057 -0.00011836052 -0.07280481
000230 16 97 8d bb e1 d2 d4 bd 5b 8d 39 be 16 58 fe bd
       -0.0043209894 -0.103917845 -0.18120329 -0.12419145
000240 3f 6a e0 bc 7b 68 a7 bd 25 6e 07 3c ce 81 95 3c
       -0.027394412 -0.08174225 0.008266007 0.018250372
000250 b1 78 4a bd 55 4b 6f 3d f4 51 87 be 4b f6 af bc
       -0.049431507 0.05842145 -0.26429713 -0.021479746
000260 ea 1c 54 3d 04 db 0a be e2 3c 62 bd bb 89 b5 3d
       0.051785387 -0.1356011 -0.055233844 0.088641606
000270 7e 5c c7 bb 9f 43 e8 bd fe dd 70 3d 10 68 09 3e
       -0.006084024 -0.11341023 0.05880546 0.13418603
000280 ba d8 02 bc 24 08 64 bd 3a a0 57 3c 4c 8d 07 be
       -0.007986242 -0.055671826 0.01316076 -0.13237494
000290 e9 68 80 bd b9 44 ae be e8 f7 36 3c 9e 48 eb bd
       -0.0627001 -0.34036806 0.011167504 -0.1148846
0002a0 d5 a5 2d bb d4 56 c2 bc 52 d8 44 be b5 4a 89 3d
       -0.0026496549 -0.023723044 -0.19223145 0.06703702
0002b0 62 35 81 bd 04 de 02 3e 52 03 9d bd 0f aa 92 bc
       -0.0630901 0.12780005 -0.07666649 -0.017903356
0002c0 58 e1 8e bd 9c 94 92 bd 09 fa 32 3d 17 f1 90 bd
       -0.06976575 -0.07157251 0.043695483 -0.07077234
0002d0 62 ab c2 3c 33 fd 40 3c 4d 0d 2d bd 15 47 42 bd
       0.023763362 0.011779117 -0.042249013 -0.04743107
0002e0 98 63 1e bd 3a 05 39 3c f0 5a a5 bc d0 27 ad bd
       -0.0386692 0.01129275 -0.020184964 -0.08454859
0002f0 79 3b ac 3b 5c bd f6 bd 05 c5 19 bd 81 cf 80 3b
       0.005256113 -0.12047836 -0.037541408 0.0039309864
000300 be 08 0d 3d c5 3f 27 bd 56 d9 13 be ed 31 40 bd
       0.034432165 -0.0408323 -0.14438376 -0.046922613
000310 98 cc d3 be e1 a2 ea bd 0c dc 77 bd 37 96 cb bc
       -0.4136703 -0.11456848 -0.060512587 -0.024851901
000320 16 7d 18 be 26 3f 67 3d 35 d2 e0 be 3e 18 71 3c
       -0.14891466 0.056456707 -0.43910375 0.014715252
000330 cd d1 67 3c 93 aa cf bc c8 72 6c 3c 88 85 9e bc
       0.0141491415 -0.02534989 0.014431663 -0.019350782
000340 af 94 10 3d 7e cc c1 bd 15 e0 a1 bd 04 e9 bd 3c
       0.035298046 -0.09462832 -0.079040684 0.0231824
000350 e5 f2 b4 3d b8 10 0c bc 3c 00 e6 bd 1a 08 4c bd
       0.08835391 -0.008548908 -0.112305135 -0.049812414
000360 13 63 08 be 43 72 ad 3d ea 70 00 3d 5f 32 92 3d
       -0.13319044 0.08469059 0.031357683 0.07138514
000370 36 a2 05 bd 00 9e 15 bc 65 fc 4b be 2a 77 b8 bc
       -0.0326254 -0.009131908 -0.199205 -0.02251776
000380 c1 f2 13 be 83 c6 bf 3c f2 8c 3e bd 7c 59 76 3d
       -0.14448072 0.023410087 -0.046521135 0.060143933
000390 52 dd a8 be b5 43 5b 3d 2e 7e 82 bd 63 73 2b be
       -0.32981354 0.053531367 -0.06371723 -0.16743235
0003a0 a5 1c 97 bc ea fc f2 bd 5f 44 36 3d cd 2f e7 bd
       -0.018446276 -0.11864646 0.044498798 -0.11288414
0003b0 61 d5 4b be de a0 f8 bb 49 2a 10 bd fa e7 09 3c
       -0.19905616 -0.0075875362 -0.035196576 0.008417124
0003c0 7c 61 78 bd 1f 90 cf bd 92 7b 75 bd c9 bd 90 3d
       -0.060639843 -0.10134911 -0.0599323 0.07067449
0003d0 5b 45 8a bd 3f b1 06 bd 41 8c 9a 3c 10 3d 24 bc
       -0.0675151 -0.03288388 0.018865706 -0.010024324
0003e0 64 92 3e bd 3b 8b cc bd ae df 5a bd 93 28 36 3d
       -0.046526328 -0.099874936 -0.053435974 0.04447229
0003f0 66 d2 05 bd 73 78 bd bd 0a d6 19 be 72 eb 38 3d
       -0.032671355 -0.092514895 -0.15023056 0.045146413

advantage_stream.0.bias f4 [64]
000000 d9 ed f0 bc 74 a5 0c be 9f a1 8c bd 1b 26 1f bf
       -0.02941029 -0.1373499 -0.06866764 -0.6216752
000010 16 1e 60 bd 33 26 1e 3e b2 7e 13 bd f5 ad 58 bf
       -0.054716192 0.1544426 -0.036009498 -0.8464044
000020 f7 a7 89 bd 39 33 a8 bc 53 85 ef bd 24 1c 64 3b
       -0.0672149 -0.020532237 -0.116953515 0.0034806812
000030 b0 f5 c5 bd 52 eb 72 bd d4 05 87 bd f5 77 ff 38
       -0.09666002 -0.05930645 -0.065929085 0.00012181691
000040 9d 4a 3c 3d 28 12 3b 3d c8 5a af 3d ea 80 50 3e
       0.045969594 0.045671612 0.08562237 0.20361677
000050 39 7e 45 bd b9 3f 44 bf 72 e1 01 bd 4a b2 67 3c
       -0.04821608 -0.76659733 -0.031709142 0.0141416285
000060 78 90 81 bd 38 05 0f bc 0c 3b 2e bd a8 d8 f9 bc
       -0.06326383 -0.008729272 -0.04253678 -0.030498818
000070 65 1e 09 bb 21 eb cd bd 4d e9 2b 3e 0b b1 42 3d
       -0.0020922658 -0.10054613 0.16788216 0.047532123
000080 a9 8f 83 bc e0 78 0e 3d 0f 7a 05 3c c8 c8 09 3e
       -0.016059713 0.034783244 0.008146777 0.13455498
000090 c3 39 a9 3d c9 01 8a bc 22 a7 6f bc ec 78 81 bd
       0.0826297 -0.016846554 -0.01462725 -0.06321892
0000a0 fd f3 6c 3e 04 ca 5f 3d 1b 7a 0b 3a 9e 25 df 3c
       0.23139949 0.054636016 0.00053206243 0.027239617
0000b0 7b 65 6f bd 24 7f 9c bc 42 63 16 3d cf 34 bc bd
       -0.05844639 -0.019103594 0.036715753 -0.0918976
0000c0 d2 86 3c 3c 2e b8 b4 bd 3a 4a 23 3e 40 4b f5 3c
       0.011506753 -0.08824192 0.15946284 0.029943109
0000d0 fb d9 2b bf b4 9b 23 bd f0 8c 09 3d 1d 80 41 3d
       -0.67129487 -0.039943412 0.033581674 0.04724132
0000e0 b4 72 1e bd 9d 18 b6 bd ff cc 48 bd bd 2c a7 bd
       -0.03868361 -0.08891413 -0.049023625 -0.0816283
0000f0 0a 03 0e 3c e6 c0 e9 bc 5a 9a ea bd 49 6b 66 3e
       0.008667717 -0.028534364 -0.114552215 0.22501864

advantage_stream.2.weight f4 [9, 64]
000000 bb e9 fb bc 4b 24 89 b9 9e 4a 74 bd 5a 97 25 c0
       -0.0307511 -0.00026157717 -0.059641473 -2.5873628
000010 6e f9 b9 3e 9e 81 02 bf b7 af 93 3d a9 4c 4b 40
       0.36323112 -0.5097903 0.07211249 3.176554
000020 ff 5c d4 bc c8 e0 d2 bd f7 8e 0a be 3b 53 e1 3d
       -0.02592325 -0.1029678 -0.135311 0.11002203
000030 42 d6 1b 3d 9f dd 8b bd 65 5a b4 bc 0c 1b bd bd
       0.03804613 -0.0682938 -0.02201576 -0.092336744
000040 ee a5 3b 3c 2b 8f 35 3c 79 73 7e 3e 18 27 86 be
       0.011453135 0.011081497 0.24848737 -0.262017
000050 48 1f 2a 3e 46 27 03 40 02 e6 7b 3e 39 f6 80 bc
       0.16613495 2.049272 0.2459946 -0.015742408
000060 2b 90 35 3f f6 4d dc 3c 69 e8 d3 3c 3e 08 24 bd
       0.7092311 0.026892643 0.025867658 -0.040046923
000070 da 5e 29 3d 65 a3 a0 bd ce be 99 3d 81 dc 79 3d
       0.041350223 -0.07843665 0.07507096 0.061001305
000080 b2 f7 97 3a 12 17 96 3e e7 5d df 3e 8c 6b 03 3e
       0.0011594205 0.29314476 0.4362633 0.12833995
000090 0e 00 5d be 18 4b e8 bb 68 61 00 3d db 09 9f 3d
       -0.21582052 -0.00708903 0.031342894 0.07765552
0000a0 c3 76 92 be 64 51 ba bc d2 fa e7 bd b6 2b 1c 3f
       -0.28606233 -0.022743888 -0.11327137 0.610042
0000b0 f6 01 e3 3c c6 0c f1 3c 96 e2 46 3f 16 b0 21 3c
       0.027710896 0.029425036 0.7768949 0.009868642
0000c0 41 6d 03 bd 3d 55 f7 3c 52 ce c1 bc 5d a5 cc 3b
       -0.032086615 0.030192012 -0.023657952 0.006245299
0000d0 50 ce 89 c0 65 69 af 3e bc 83 d4 3c 3b 82 bf bb
       -4.3064346 0.34260097 0.025941722 -0.005844382
0000e0 8e ae 5f bd 2b 39 67 bd f5 df 88 3d c9 c6 96 3d
       -0.054609828 -0.056451004 0.066833414 0.07362134
0000f0 49 14 fe 3d d9 6c 9e 3c 16 17 06 bb d4 a3 2d 3d
       0.12406213 0.019339012 -0.0020460538 0.042392567
000100 e5 99 05 3d 0a 69 86 bd 42 f6 ab bd 8d d5 22 40
       0.03261747 -0.06563003 -0.08396579 2.544284
000110 86 0b bb 3e aa e0 09 bf bb 4c 96 bc 0e 4b 14 3f
       0.3653223 -0.53858435 -0.018347135 0.57927024
000120 cc 1e 87 bb b1 d2 88 bd ad ab 0e bd c9 20 c5 be
       -0.0041235443 -0.06680811 -0.03483169 -0.38501576
000130 01 e5 4c bc 34 ad 00 bd ec 9f 86 bd d4 db 58 3d
       -0.012505771 -0.03141518 -0.065734714 0.05294402
000140 59 07 25 3a b5 1d e8 3d 2c b4 d5 3d b5 18 c4 bf
       0.00062953454 0.11333791 0.10434756 -1.532004
000150 e6 2b d4 bc 7a 55 dc 3f 84 02 64 bb 6d 15 c4 3e
       -0.025899839 1.7213585 -0.0034791538 0.38297597
000160 55 78 03 40 79 a4 8f bc 61 94 28 3d 7f 8d 85 be
       2.0542195 -0.017534481 0.04115713 -0.26084515
000170 38 62 07 bc a5 85 15 bd 06 db ed be 66 a9 c9 bd
       -0.008263163 -0.036504406 -0.46456164 -0.09846763
000180 ca 3c 20 bd eb d8 ea 3e a4 bb bc 3f 52 b0 81 3f
       -0.039120473 0.4586862 1.4744763 1.0131934
000190 48 8f 33 bf 43 21 5c bc 9f 0d 0e bc dd 8e 6f 3d
       -0.70140505 -0.013435665 -0.00867024 0.058485854
0001a0 9a 11 c7 3d 12 bd ca 3d 34 b6 f2 bd 1e 13 97 bf
       0.09720154 0.098993436 -0.11851159 -1.1802709
0001b0 7d b1 3c bd e2 c0 e6 bd a1 23 50 3f 68 1e ae bd
       -0.046067704 -0.11267258 0.81304365 -0.08501893
0001c0 41 71 64 bc ed 28 5d 3d 86 9f e5 be 84 54 04 3d
       -0.013943017 0.053994108 -0.4484827 0.032307163
0001d0 12 b7 41 bf 31 6a 95 3e bd 63 87 bd e0 17 08 3e
       -0.7566997 0.2918258 -0.066108204 0.13290358
0001e0 b6 82 84 3d 2d 7c fd bd 2f fe 6c 3d 00 66 a7 bd
       0.06470244 -0.123772 0.057859596 -0.08173752
0001f0 80 e6 23 3d 29 db 9f bd 68 74 91 bd 8d 8b 69 3f
       0.040014744 -0.07805473 -0.07102281 0.9122856
000200 54 33 dc bd b6 8f cc bc ad 2e a8 bc 8f 20 b8 bf
       -0.107519776 -0.02497087 -0.02053007 -1.4384936
000210 24 4e c7 3e 9d 3d e1 be 72 6b e4 bd ad 41 23 3f
       0.38926804 -0.4399232 -0.11153306 0.6377209
000220 39 f4 8c bc c2 a0 a1 bd 98 84 fd 3d 4e e8 1d 3f
       -0.017206298 -0.0789199 0.12378806 0.61682594
000230 67 d1 45 bd 81 80 bc 3d 7f d8 7a 3d 84 0c 40 3d
       -0.048295405 0.09204198 0.061241623 0.046886936
000240 f4 7e c5 3d 38 5e 38 bd 28 2c 02 3f 96 15 e8 3e
       0.09643355 -0.04501173 0.5084863 0.4532897
000250 13 83 eb 3d e1 36 36 3e f3 cd ca 3d 13 5e 8e be
       0.1149961 0.17794372 0.09902563 -0.27806148
000260 b5 bf df be 2d b3 19 3e f5 75 97 bd fe dc 57 3e
       -0.43700948 0.15009756 -0.073955454 0.21080396
000270 68 fc 55 3d 27 4c e7 3d c3 5f 1b 3f 4b 02 85 3d
       0.052242666 0.11293822 0.60692996 0.06494578
000280 44 c1 d0 38 6c 69 03 3e 05 89 a3 bf fa 5d 52 bf
       9.9542114e-05 0.12833184 -1.277619 -0.82174647
000290 d2 e7 4f 3e e9 e5 68 bd 1a d5 89 bd ce 86 f0 3d
       0.20303276 -0.056859884 -0.06730099 0.11744462
0002a0 ae 7e 34 bf bf 4b 39 bd 50 fa c6 3d 71 65 fb 3f
       -0.705058 -0.045238253 0.09715712 1.9640332
0002b0 dd fc f9 bc ed 06 27 3d c7 97 4c 3f ab 1c b3 3d
       -0.030516082 0.04077809 0.79919094 0.08745702
0002c0 ff cd e6 3d 94 c9 27 bc 78 25 cd 3e e7 8c 39 3d
       0.112697594 -0.010240931 0.4006765 0.04530039
0002d0 05 4c 0b 3f 30 75 e3 3e 67 a1 0e 3d 48 00 51 3d
       0.5441287 0.44425344 0.034821894 0.05102566
0002e0 bf 42 13 3c 04 32 4d 3d 7f f3 8e 3d 6e 79 05 be
       0.0089880815 0.050096527 0.06980037 -0.13034603
0002f0 ae 3f 0a 3e 6e d7 cf 3c 41 23 b4 bd a3 b7 5f bf
       0.13500854 0.02537128 -0.08795787 -0.8738958
000300 d1 ac ec 3d 5d 46 0b bd 79 8a b7 3c 9e 22 b0 bf
       0.115563996 -0.03400265 0.022404896 -1.3760564
000310 16 7c 04 3c 93 25 cf 3b 32 37 82 3d 76 be 9d bf
       0.008086225 0.006321618 0.06358184 -1.2323749
000320 3a 5e 4d 3d 81 b4 fd 3b a7 64 97 bd d2 e1 c2 3d
       0.05013869 0.007742465 -0.07392245 0.09515728
000330 39 0a ae bd 2e f3 ff 3c 37 f0 9b bd 9a 58 5b bd
       -0.084980436 0.031243887 -0.07614177 -0.053551294
000340 dc cf 09 be dc 47 aa bd 43 a1 d3 3b 93 25 96 be
       -0.13458198 -0.08314487 0.006458433 -0.29325542
000350 e7 91 8b bd e8 8a d2 be 26 a2 0b be 8e 06 dc 3c
       -0.06814938 -0.41121602 -0.13636073 0.026858594
000360 8d 9e e8 3d aa 76 2c bc 7d 16 6f bc 39 5b 1c 3d
       0.11358366 -0.010526339 -0.014592764 0.038172934
000370 da d4 53 bb 08 5a a9 3d 4f 19 26 bd a7 6a 77 bd
       -0.0032322914 0.08269125 -0.04055148 -0.060404446
000380 66 54 43 bc 3b 88 07 bd 80 58 a4 bd 95 35 88 3c
       -0.011921978 -0.033088904 -0.080246925 0.016627112
000390 12 db 04 bc 24 67 d8 3d 78 af 23 bd 64 31 64 bd
       -0.008108871 0.105665475 -0.039962262 -0.055711165
0003a0 db d6 0f bd 77 dd b2 bd 84 dd af bd 0e 2c 72 3e
       -0.03511701 -0.08733647 -0.085871726 0.23649618
0003b0 59 cc a5 3d 9e bb e9 bc 7c 5e 26 3c 88 b3 5e 3d
       0.08095617 -0.028531846 0.010154363 0.054370433
0003c0 bc 81 60 bd ca ae a4 bd f1 e9 7e 3d c8 c6 a5 bc
       -0.054811224 -0.08041151 0.062234823 -0.020236388
0003d0 05 2e 5a 40 a0 a4 4c 3c 4b 0f 6d 3d 4d e4 19 3d
       3.4090588 0.0124904215 0.057875913 0.03757124
0003e0 03 a8 ae bd 8c 6e 8a 3d 52 72 18 3d eb ab 0a bc
       -0.085281394 0.067593664 0.0372184 -0.00846384
0003f0 14 88 12 bd d8 3d d1 bd 6f eb b9 3d 58 9b 76 3d
       -0.035774305 -0.10216874 0.090781085 0.06020674

advantage_stream.2.bias f4 [9]
000000 89 34 ba be d9 f1 40 bf 24 75 58 be 40 a4 97 bd
       -0.36368206 -0.7536903 -0.21138436 -0.07404375
000010 a1 d6 96 be 2f 06 d1 3d 82 b0 0e 3f 9a 90 20 3e
       -0.29460624 0.102062576 0.5573808 0.15680161
000020 85 6e 6a 3f
       0.9157489
