DQN/rocket_dqn_checkpoint.pth (torch, 576098 bytes, 44 tensors)

hidden.0.weight f4 [128, 8]
-0.2015309 0.3489694 -0.30265203 0.20360644 -0.055994175 0.11714751 -0.34772548 0.38954845
0.11601787 0.16849104 -0.02439813 -0.12108271 0.09357633 -0.21660043 -0.20072617 -0.07050326
0.10530767 -0.01889473 -0.077355966 -0.41700068 -0.14236237 0.007233425 -0.10214527 0.020799868
0.3201456 -0.4433855 -0.15419598 -0.20087121 0.11597919 0.021535996 0.20844044 0.4367781
-0.3313536 -0.15446618 -0.15603381 0.11120449 -0.36760145 -0.4879016 -0.15495782 -0.0192548
-0.16250326 0.0144517915 0.11681075 -0.26615942 -0.25566325 0.16455899 0.09808385 -0.15157102
-0.121272214 -0.19733192 0.19902454 -0.52740884 -0.14133939 -0.12301729 0.12120954 -0.09999001
0.015099066 -0.2023651 -0.17728275 0.00417591 0.35168153 0.27727622 -0.342998 0.14117888
-0.39140686 -0.16825385 0.3250717 0.09273838 0.21103673 -0.14122608 0.15876915 0.04629606
0.0884927 0.03688127 0.28089917 0.22235695 -0.16981871 -0.22351831 -0.32043234 0.31810343
0.11820514 0.14930245 -0.18316317 0.47814196 0.36618224 -0.28232095 -0.13437037 0.26148397
0.077363014 0.03259754 -0.02935626 0.29046988 0.45773742 0.3369156 0.35406888 0.2818414
0.31336194 -0.26401898 0.22580063 -0.0029089814 0.18901612 -0.31585795 0.023031348 0.6624819
-0.21590503 -0.08418662 0.07916481 -0.4784266 0.034844168 -0.17084786 0.22832477 0.110787526
-0.16918902 0.18165682 -0.11029872 -0.5346641 -0.18473499 -0.35639465 -0.008746364 -0.06866474
0.3495492 0.14239426 -0.3032163 0.0026171582 -0.4530255 0.040019233 -0.07875527 0.17346656
-0.059570186 -0.18486564 0.13094991 -0.35033536 -0.058432434 0.12233498 -0.35258505 -0.26306444
-0.09917517 0.29767537 -0.043923356 0.50323343 0.43776396 0.30335578 0.09324056 0.1845057
-0.22956237 -0.08636753 -0.32003093 -0.12553574 0.25081682 0.14610082 -0.07299868 -0.23387611
-0.07541526 -0.058338117 0.14330746 -0.34408 -0.05034331 -0.018681956 0.050572 -0.109048784
0.08184456 -0.36377877 0.075470336 0.063988745 -0.123780645 -0.15042971 0.31163245 0.57488
-0.04913214 -0.30453044 -0.117222056 0.29220027 -0.17614491 -0.12551387 -0.20286171 0.19929533
0.07451225 0.0923649 0.17632121 0.21949323 0.42838094 0.26429722 0.16367684 0.34527
-0.10199174 0.37072316 0.10185228 -0.22730337 -0.256655 0.38890138 -0.00060480705 -0.08301567
0.03795417 0.20618376 0.29586217 -0.2914366 -0.11224363 -0.21242829 -0.18219653 -0.15932502
-0.3255959 -0.10448046 0.4111329 -0.39379638 -0.0842755 -0.16513735 0.10257074 -0.06383894
0.04159379 -0.28379756 -0.27075475 -0.24296132 0.31691808 0.28462008 -0.027798587 -0.12989962
-0.24386737 0.050722476 0.2806001 -0.42189422 -0.018256474 0.021338899 0.32917854 0.14951853
-0.07792245 0.16487612 0.100866415 0.18347982 0.05712918 -0.29037195 -0.25759277 0.09499965
-0.25038657 0.0384006 -0.058985647 -0.24204196 -0.25893196 -0.2314965 0.10147747 0.07788223
-0.48787338 0.28736818 0.20666097 0.2576141 0.3247914 -0.2570257 0.24467346 -0.048798993
0.017472737 0.24038145 0.13063934 -0.41605398 -0.6223206 -0.48690063 0.19829005 -0.22475551
00000000: 1e5e 4ebe 1eac b23e 35f5 9abe 357e 503e
00000010: 265a 65bd 09eb ef3d 1309 b2be e572 c73e
00000020: c79a ed3d ea88 2c3e 96de c7bc 36fa f7bd
00000030: f2a4 bf3d 81cc 5dbe 298b 4dbe 0364 90bd
00000040: 8cab d73d 1fc9 9abc ce6c 9ebd 1d81 d5be
00000050: 71c7 11be 5e06 ed3b 8a31 d1bd 7c64 aa3c
00000060: 20ea a33e 6d03 e3be 8de5 1dbe 2fb1 4dbe
00000070: 7f86 ed3d 426c b03c 6971 553e 61a1 df3e
00000080: 2ea7 a9be 622c 1ebe 54c7 1fbe 2ebf e33d
00000090: 4236 bcbe 3dce f9be 43ad 1ebe 3ebc 9dbc
000000a0: 4167 26be 35c7 6c3c 793a ef3d 0c46 88be
000000b0: 4be6 82be 2782 283e 30e0 c83d 6f35 1bbe
000000c0: 915d f8bd 6111 4abe 17cd 4b3e 4404 07bf
000000d0: 46bb 10be 7df0 fbbd b53c f83d 90c7 ccbd
000000e0: 1362 773c cc38 4fbe 9c89 35be 12d6 883b
000000f0: 9a0f b43e 26f7 8d3e 6f9d afbe 3291 103e
00000100: 7b66 c8be bd4a 2cbe cc6f a63e 9fed bd3d
00000110: 031a 583e 929d 10be 6194 223e f0a0 3d3d
00000120: a93b b53d d110 173d 04d2 8f3e 8ab1 633e
00000130: f5e4 2dbe fce1 64be b50f a4be 74de a23e
00000140: 8915 f23d bee2 183e 208f 3bbe 06cf f43e
00000150: 3d7c bb3e 5f8c 90be 6398 09be 3ae1 853e
00000160: 8070 9e3d 0085 053d 8a7c f0bc 78b8 943e
00000170: 8f5c ea3e 3480 ac3e 8448 b53e 844d 903e
00000180: fa70 a03e 7f2d 87be 4838 673e 9ca4 3ebb
00000190: 718d 413e 22b8 a1be 3dac bc3c 6a98 293f
000001a0: 3516 5dbe 096a acbd 2921 a23d 55f4 f4be
000001b0: c2b8 0e3d bef2 2ebe f8cd 693e 92e4 e23d
000001c0: e33f 2dbe 3f04 3a3e 4ce4 e1bd bfdf 08bf
000001d0: 2b2b 3dbe 5c79 b6be e94c 0fbc 19a0 8cbd
000001e0: 1df8 b23e cdcf 113e 2b3f 9bbe a184 2b3b
000001f0: f5f2 e7be 35eb 233d 714a a1bd 38a1 313e
00000200: deff 73bd 6b4d 3dbe bc17 063e 285f b3be
00000210: d956 6fbd c38a fa3d 0786 b4be 62b0 86be
00000220: 5a1c cbbd e868 983e fae8 33bd e8d3 003f
00000230: 9922 e03e 7351 9b3e e8f4 be3d 10ef 3c3e
00000240: 6612 6bbe 76e1 b0bd 18db a3be 718c 00be
00000250: 106b 803e 749b 153e 5580 95bd 387d 6fbe
00000260: 5173 9abd f3f3 6ebd 31bf 123e 412b b0be
00000270: c934 4ebd e70a 99bc 9624 4f3d f854 dfbd
00000280: 1f9e a73d 3641 babe 3190 9a3d 880c 833d
00000290: b580 fdbd 3f0a 1abe 4a8e 9f3e 562b 133f
000002a0: c83e 49bd 6aeb 9bbe 1e12 f0bd 469b 953e
000002b0: 555f 34be b586 00be fbba 4fbe 1314 4c3e
000002c0: e199 983d cf29 bd3d 8c8d 343e d5c2 603e
000002d0: bf54 db3e f751 873e e79a 273e 3bc7 b03e
000002e0: 0ce1 d0bd 6dcf bd3e ee97 d03d 37c2 68be
000002f0: 4968 83be 151e c73e ea8b 1eba 1f04 aabd
00000300: d575 1b3d d621 533e 3f7b 973e 2e37 95be
00000310: fddf e5bd cd86 59be ba91 3abe 1926 23be
00000320: 81b4 a6be daf9 d5bd 0380 d23e ae9f c9be
00000330: a298 acbd c419 29be 9c10 d23d fdbd 82bd
00000340: 405e 2a3d ea4d 91be 5ea0 8abe daca 78be
00000350: 1643 a23e b9b9 913e ddb9 e3bc 6804 05be
00000360: 5eb8 79be 5fc2 4f3d d1aa 8f3e 8502 d8be
00000370: 9a8e 95bc eace ae3c 178a a83e 631b 193e
00000380: ce95 9fbd 49d5 283e 0d93 ce3d 22e2 3b3e
00000390: 4900 6a3d a2ab 94be 33e3 83be 2d8f c23d
000003a0: ab32 80be f349 1d3d ef9a 71bd d9d9 77be
000003b0: bb92 84be 6b0d 6dbe 6bd3 cf3d b880 9f3d
000003c0: 8aca f9be ec21 933e ef9e 533e ffe5 833e
000003d0: 0f4b a63e df98 83be ae8b 7a3e 74e1 47bd
000003e0: fc22 8f3c 8e26 763e 52c6 053e 0705 d5be
000003f0: 6750 1fbf 0a4b f9be 8c0c 4b3e 4f26 66be

hidden.0.bias f4 [128]
-0.028687367 0.1763045 0.15296544 -0.28901234 0.23446417 0.23213638 0.3636788 -0.02614938
0.1690238 -0.19268025 0.005760905 0.39105672 -0.06410828 -0.23368911 0.062216464 -0.1385475
-0.30856335 -0.16367081 -0.26108673 0.24536005 -0.41084749 -0.35084364 0.09393842 0.20576432
-0.14559928 0.00035441047 -0.037825268 0.003026016 -0.08295306 0.22272977 -0.21196702 -0.28312635
0.13478808 -0.26866165 0.08356264 -0.05177425 -0.065256275 -0.42369878 -0.17168263 -0.24971513
0.052571114 0.3118678 0.10014844 0.042259365 0.2800412 -0.25723818 0.3451262 -0.1566882
0.14787015 -0.0160742 -0.24013308 -0.2395337 0.23208933 -0.14785533 0.051532507 0.1796215
0.3548065 -0.25380751 0.1599684 0.05926205 0.15016496 -0.24195355 -0.23217933 0.25808537
0.18561897 0.18118793 -0.17539172 0.07986646 0.20334832 0.043642268 0.118434854 -0.22301516
0.1039747 0.0062019085 -0.010174908 0.18158504 -0.23190959 0.2511907 0.05202291 -0.0016123435
0.19959657 -0.3610213 -0.11448227 -0.06632524 -0.049981102 0.21572503 -0.14989796 0.13548157
-0.35742587 0.26700875 -0.22346489 0.16484587 -0.027462684 0.29337943 0.42893958 0.27899894
-0.1798557 0.04311028 -0.3114003 0.07790451 -0.013202905 -0.15695712 -0.16419764 0.055600937
0.08494656 -0.29329774 0.35667586 0.20530751 0.023126278 -0.24619132 -0.014617571 -0.2907631
-0.1180955 0.31033075 0.37877324 0.03623877 0.08960454 -0.10247968 -0.20884445 0.10470121
0.15319371 -0.08130772 0.17409544 0.053790588 -0.13492504 -0.10036901 0.011892613 -0.11963349
00000000: c501 ebbc 2b89 343e f9a2 1c3e 6df9 93be
00000010: 6017 703e 29b5 6d3e 1c34 ba3e 3937 d6bc
00000020: 9314 2d3e f94d 45be f9c5 bc3b 9638 c83e
00000030: 344b 83bd 334c 6fbe b1d6 7e3d 65df 0dbe
00000040: 04fc 9dbe 5299 27be 29ad 85be aa3f 7b3e
00000050: 9a5a d2be c7a1 b3be c962 c03d e2b3 523e
00000060: fa17 15be 2bd0 b939 abee 1abd 2050 463b
00000070: 4be3 a9bd 4613 643e e20d 59be f0f5 90be
00000080: e305 0a3e 058e 89be e422 ab3d 3c11 54bd
00000090: 15a5 85bd 0cef d8be 92cd 2fbe 53b5 7fbe
000000a0: cf54 573d 23ad 9f3e a01a cd3d 2818 2d3d
000000b0: 8f61 8f3e b9b4 83be 62b4 b03e df72 20be
000000c0: 466b 173e 0aae 83bc 72e5 75be 5248 75be
000000d0: d3a8 6d3e 6367 17be c013 533d b3ee 373e
000000e0: 33a9 b53e 0ff3 81be c2ce 233e c3bc 723d
000000f0: d8c4 193e acc2 77be 6bc0 6dbe c423 843e
00000100: e612 3e3e 5489 393e e399 33be 0791 a33d
00000110: 8b3a 503e 3cc2 323d f98d f23d 165e 64be
00000120: b0f0 d43d 6139 cb3b a8b4 26bc 6ef1 393e
00000130: b579 6dbe 119c 803e fa15 553d 4555 d3ba
00000140: 0b63 4c3e c9d7 b8be ae75 eabd 87d5 87bd
00000150: fcb8 4cbd 06e7 5c3e da7e 19be aebb 0a3e
00000160: 8600 b7be 5fb5 883e fbd3 64be 5bcd 283e
00000170: 6cf9 e0bc d435 963e f89d db3e f3d8 8e3e
00000180: 182c 38be 6894 303d dc6f 9fbe 668c 9f3d
00000190: ff50 58bc 5eb9 20be 6d23 28be cfbd 633d
000001a0: 76f8 ad3d 1f2b 96be 389e b63e 223c 523e
000001b0: 5273 bd3c 9419 7cbe 897e 6fbc e7de 94be
000001c0: 0edc f1bd ace3 9e3e 91ee c13e 1b6f 143d
000001d0: 9682 b73d dee0 d1bd 52db 55be 976d d63d
000001e0: d0de 1c3e a984 a6bd 1346 323e 8553 5c3d
000001f0: ca29 0abe 448e cdbd 3cd9 423c 6702 f5bd

hidden.2.weight f4 [128, 128]
-0.011091238 0.054931387 0.058080524 -0.0637366 0.06841467 -0.0923782 -0.028692441 0.06181067
0.0049109915 0.074845344 -0.08825844 0.031583466 0.008971136 0.0046472535 0.014865096 -0.03773386
-0.051056586 0.014675563 -0.04623365 -0.008802198 -0.09816701 0.046504937 0.0059424653 -0.051070813
0.06459744 0.010253682 0.01033388 0.0038693212 0.005323389 -0.06103187 0.04268819 -0.016531112
0.014813846 0.04441064 0.02374578 -0.00064407435 0.038927168 0.07129821 -0.03681035 0.05819092
-0.054094564 -0.052785497 -0.08307456 0.067770585 -0.0753519 -0.050267197 -0.09409198 0.050292242
-0.064819455 0.05227369 0.025662463 -0.06970608 -0.058884118 0.011313726 -0.021774596 -0.008900635
0.022326961 -0.023956405 0.024778144 -0.021951025 0.056621965 -0.0035870338 0.08126922 0.05068087
-0.04542897 -0.07997965 -0.06653312 -0.07604708 0.020877851 0.04489228 -0.02866509 0.078584336
-0.040106393 -0.063140646 0.059772022 0.028670803 0.02362188 -0.00081785483 -0.037787262 0.022600858
0.006991565 0.0201113 0.073070705 0.013840429 -0.0016655591 0.075350925 -0.07119404 -0.043748125
-0.0024987813 -0.05316667 0.028553719 -0.083998755 -0.08658753 0.061127163 0.030969715 -0.03118728
-0.017404217 -0.04432978 -0.060597993 0.06850207 0.03484044 0.053489853 -0.049130015 -0.05994724
0.031182632 -0.09607532 0.060989078 -0.08638192 0.012307975 -0.02365215 -0.081540525 0.08057207
-0.0188951 0.014944849 -0.058089666 -0.083139926 -0.036079284 0.041158948 -0.025351003 -0.0014223692
-0.0041310056 -0.025891926 0.021846203 -0.05567767 -0.00828468 -0.024375072 -0.053009775 0.034739695
-0.04643079 -0.022060303 0.05296206 -0.03909888 0.076348275 0.014692794 -0.010724726 0.056908328
-0.08717277 0.016381279 0.026831906 -0.07341696 0.019375553 -0.07093733 0.08836275 0.078572035
-0.03617484 0.023457987 0.07036811 0.064183325 0.005663947 -0.00937328 -0.046816345 -0.057144973
-0.032092474 -0.08813377 0.069342226 0.045126416 -0.006763273 -0.08038942 -0.07604042 0.008032467
0.005251639 0.02805152 -0.0082515245 -0.055526365 -0.07492517 0.019499015 -0.07493277 -0.01148784
-0.046619527 0.058536526 -0.022586035 0.056292016 -0.017584234 -0.006506999 0.074381694 -0.057158597
0.061792128 0.010811937 0.057569638 -0.008966562 -0.0547515 -0.05527346 0.054642916 -0.008943189
0.0763623 -0.084632754 -0.031747397 -0.08743737 -0.0014871084 -0.048207343 -0.018344196 -0.04370156
-0.0632637 -0.05538746 -0.031884205 -0.07071998 -0.0016685976 0.0038408511 -0.019432973 -0.021568187
0.0018946026 -0.07496363 0.003767426 0.06500239 -0.057642773 0.051071886 -0.0373983 0.04971108
0.0478563 0.034350403 0.06397777 0.03433883 0.016358446 0.055522844 0.07010749 0.02345959
-0.0025561864 -0.012550562 0.026173867 -0.05933356 -0.06936941 -0.008386408 -0.059484396 0.042000707
-0.014132469 0.035620946 0.04318331 -0.018432165 0.01481243 0.022041379 -0.043061268 -0.069564626
-0.057287984 -0.08651754 -0.06663248 0.082076155 -0.040406782 0.033028137 0.06047459 -0.017291905
-0.0017100354 -0.08195349 0.048460435 -0.035954244 -0.012002834 -0.012848972 -0.077657774 0.03751898
0.07433911 0.03112177 -0.0676244 -0.026453331 -0.088104844 -0.010761481 0.07346365 -0.044072412
00000000: 06b8 35bc bcff 603d d8e5 6d3d 5688 82bd
00000010: fe1c 8c3d c830 bdbd 690c ebbc 2f2d 7d3d
00000020: 62ec a03b 8448 993d d7c0 b4bd aa5d 013d
00000030: acfb 123c fd47 983b bb8c 733c d28e 1abd
00000040: b620 51bd c671 703c 7f5f 3dbd 1837 10bc
00000050: c90b c9bd f67b 3e3d 03b9 c23b a12f 51bd
00000060: aa4b 843d 0fff 273c 6f4f 293c 7094 7d3b
00000070: d36f ae3b 8efc 79bd d0d9 2e3d 416c 87bc
00000080: c6b5 723c eee7 353d 8386 c23c 19d7 28ba
00000090: 1872 1f3d cc04 923d 73c6 16bd 9a59 6e3d
000000a0: 4392 5dbd 9b35 58bd ff22 aabd 4ecb 8a3d
000000b0: 1952 9abd fae4 4dbd 4cb3 c0bd 3dff 4d3d
000000c0: 10c0 84bd f01c 563d 163a d23c 10c2 8ebd
000000d0: 7930 71bd 355d 393c a360 b2bc f8d3 11bc
000000e0: 08e7 b63c 3940 c4bc 89fb ca3c a3d2 b3bc
000000f0: 6fec 673d 7114 6bbb 7a70 a63d be96 4f3d
00000100: ba13 3abd 5fcc a3bd 8442 88bd 92be 9bbd
00000110: 0708 ab3c f8e0 373d 0dd3 eabc d3f0 a03d
00000120: 9a46 24bd e24f 81bd 82d3 743d 08df ea3c
00000130: ac82 c13c 4f65 56ba d1c6 1abd 6f25 b93c
00000140: 8019 e53b 74c0 a43c 18a6 953d f7c2 623c
00000150: e44e daba 9651 9a3d 2ece 91bd 3c31 33bd
00000160: 98c2 23bb 4bc5 59bd 7de9 e93c 8a07 acbd
00000170: ce54 b1bd 7a60 7a3d 33b4 fd3c 777c ffbc
00000180: 4a93 8ebc 2593 35bd 9a35 78bd d04a 8c3d
00000190: d9b4 0e3d 2d18 5b3d 8e3c 49bd 3d8b 75bd
000001a0: b872 ff3c 23c3 c4bd afcf 793d 01e9 b0bd
000001b0: 64a7 493c 27c2 c1bc b8fe a6bd f802 a53d
000001c0: e6c9 9abc 3ddb 743c 6eef 6dbd 4445 aabd
000001d0: dfc7 13bd 4996 283d e8ac cfbc ca6e baba
000001e0: 635d 87bb 4e1b d4bc cff6 b23c 450e 64bd
000001f0: 77bc 07bc 3bae c7bc c720 59bd 364b 0e3d
00000200: 362e 3ebd cfb7 b4bc bfee 583d 2626 20bd
00000210: 7c5c 9c3d 0bba 703c c3b6 2fbc b518 693d
00000220: a387 b2bd 0832 863c 96ce db3c a25b 96bd
00000230: 7bb9 9e3c 9747 91bd 88f7 b43d 60ea a03d
00000240: 122c 14bd f72a c03c 281d 903d 8c72 833d
00000250: a298 b93b 6392 19bc 7fc2 3fbd d910 6abd
00000260: 6673 03bd 7a7f b4bd 4c03 8e3d 7ad6 383d
00000270: 729e ddbb 35a3 a4bd 14bb 9bbd 9c9a 033c
00000280: f115 ac3b 4dcc e53c 6731 07bc 9d6f 63bd
00000290: 5e72 99bd 66bc 9f3c 5a76 99bd 7e37 3cbc
000002a0: 1ef4 3ebd ffc3 6f3d 5906 b9bc 7592 663d
000002b0: d00c 90bc aa38 d5bb 6e55 983d 221f 6abd
000002c0: be19 7d3d 8d24 313c 24ce 6b3d 7de8 12bc
000002d0: 1c43 60bd 6c66 62bd 40d1 5f3d 7486 12bc
000002e0: d663 9c3d f053 adbd 8f09 02bd 5d12 b3bd
000002f0: 14eb c2ba 1075 45bd 9146 96bc 6800 33bd
00000300: 6690 81bd f6dd 62bd 0399 02bd a3d5 90bd
00000310: d8b4 daba cab6 7b3b e631 9fbc c4af b0bc
00000320: 5054 f83a 8886 99bd ebe6 763b f91f 853d
00000330: d41a 6cbd c130 513d f62e 19bd d89d 4b3d
00000340: f804 443d 02b3 0c3d c706 833d dfa6 0c3d
00000350: 2602 863c ec6b 633d 8494 8f3d 532e c03c
00000360: b185 27bb dfa0 4dbc 946a d63c bf07 73bd
00000370: 8d11 8ebd 2567 09bc e9a5 73bd ef08 2c3d
00000380: df8b 67bc 45e7 113d fce0 303d 0dff 96bc
00000390: d6af 723c 1f90 b43c 0361 30bd e677 8ebd
000003a0: cea6 6abd 1c30 b1bd 9c76 88bd 8b17 a83d
000003b0: 9581 25bd 8348 073d 34b4 773d c1a7 8dbc
000003c0: 4423 e0ba 3bd7 a7bd 737e 463d c244 13bd
000003d0: 89a7 44bc 7f84 52bc 0a0b 9fbd 81ad 193d
000003e0: 1a3f 983d 15f3 fe3c a97e 8abd a8b4 d8bc
000003f0: 5070 b4bd ec50 30bc 1c74 963d 4685 34bd

hidden.2.bias f4 [128]
-0.039041538 -0.04428169 -0.029171908 0.03526888 0.076664075 -0.06778 -0.09426748 -0.059047844
0.01096389 -0.028477062 0.0650933 -0.07510256 -0.031273894 0.014281017 -0.023262184 0.05787896
-0.049057934 0.030748546 0.09145116 -0.054168727 -0.010713765 -0.08587771 -0.08414295 -0.063579336
0.06315843 -0.091515265 -0.050963253 -0.031643398 -0.039562438 0.027883623 0.09013462 0.09021802
0.011419066 0.029262785 0.047149632 -0.08592622 -0.073552236 0.061490692 -0.018331874 0.043184455
-0.046302613 -0.03786134 -0.050519235 0.05043273 -0.0349456 0.017658612 -0.09086185 -0.068562455
-0.030102406 -0.08062136 -0.039231487 -0.048666447 -0.0015891866 -0.034470502 0.0038112025 -0.042937092
-0.061033256 -0.012225144 -0.06125064 0.009694108 0.012867443 -0.03188727 -0.0022919783 0.01785854
-0.006060744 0.10540445 -0.027798006 0.031015499 0.0076909987 0.014604467 0.09358908 0.044456948
0.07861653 0.00608923 -0.075582534 0.04193803 0.05094848 -0.017953437 -0.046224207 -0.03411327
-0.045236155 -0.07324645 -0.04613762 -0.051462926 -0.008274575 -0.09678672 0.08357436 0.009018983
0.046688378 0.0467227 -0.0847869 0.012730773 -0.036458038 0.07134862 0.016573563 -0.0758774
-0.01975218 -0.08421915 -0.040106066 -0.025889173 0.062660605 0.08799647 -0.020255432 -0.07833996
0.054582193 -0.004773472 0.09002035 -0.04661992 -0.029353598 0.040825132 -0.084709406 0.04987887
0.0032864516 0.04603201 0.031034093 0.014444508 0.010766598 0.027314814 0.028089136 0.05179639
-0.0017049655 0.0041230167 0.041308213 -0.045759782 0.030556077 0.022710966 -0.00087858946 -0.03723373
00000000: 05ea 1fbd b860 35bd edf9 eebc 1a76 103d
00000010: 0e02 9d3d 3ed0 8abd 4f0f c1bd 27dc 71bd
00000020: e3a1 333c ba48 e9bc a34f 853d 5fcf 99bd
00000030: 0e19 00bd edfa 693c 5690 bebc 7d12 6d3d
00000040: f9f0 48bd 60e4 fb3c bf4a bb3d 07e0 5dbd
00000050: ca88 2fbc a7e0 afbd 2453 acbd e235 82bd
00000060: 3559 813d 5b6c bbbd d8be 50bd 829c 01bd
00000070: 390c 22bd 326c e43c 8098 b83d 3ac4 b83d
00000080: 0917 3b3c 82b8 ef3c f91f 413d 16fa afbd
00000090: 8ea2 96bd aadd 7b3d ba2c 96bc 2fe2 303d
000000a0: cfa7 3dbd 7e14 1bbd 42ed 4ebd 8d92 4e3d
000000b0: 1e23 0fbd cba8 903c c715 babd 796a 8cbd
000000c0: 5299 f6bc d01c a5bd 32b1 20bd 7856 47bd
000000d0: 414c d0ba f130 0dbd 5ec5 793b cede 2fbd
000000e0: 02fe 79bd f84b 48bc f3e1 7abd 09d4 1e3c
000000f0: f8d1 523c 3a9c 02bd 0435 16bb 134c 923c
00000100: 3599 c6bb 4ade d73d a5b8 e3bc 3714 fe3c
00000110: c604 fc3b 9347 6f3c a2ab bf3d 7d18 363d
00000120: b401 a13d 2a88 c73b 04cb 9abd 36c7 2b3d
00000130: 5aaf 503d 1613 93bc 9855 3dbd 5bba 0bbd
00000140: 8c49 39bd 3c02 96bd cdfa 3cbd caca 52bd
00000150: 1592 07bc 1e38 c6bd 0929 ab3d 5bc4 133c
00000160: 503c 3f3d 4d60 3f3d c1a4 adbd bb94 503c
00000170: 0655 15bd 3a1f 923d 48c5 873c 9c65 9bbd
00000180: 53cf a1bc 177b acbd 4246 24bd 8815 d4bc
00000190: 3454 803d 7e37 b43d b8ee a5bc b370 a0bd
000001a0: 9491 5f3d c96a 9cbb 975c b83d 87f4 3ebd
000001b0: f576 f0bc 4138 273d 207c adbd c94d 4c3d
000001c0: 8261 573b 108c 3c3d 363b fe3c a8a8 6c3c
000001d0: 6366 303c 51c3 df3c 301b e63c 7428 543d
000001e0: 2679 dfba 5f1a 873b cd32 293d 9c6e 3bbd
000001f0: bd50 fa3c 590c ba3c 2451 66ba 6582 18bd

value_stream.0.weight f4 [64, 128]
-0.0077928733 -0.08093304 -0.02371285 0.069116116 -0.07432157 0.08234487 -0.008401267 0.008417156
0.08889032 0.09005291 -0.008065422 0.019231638 0.11938441 -0.069311574 -0.032830816 0.029201495
-0.1573571 0.08590562 0.11837573 0.09271209 -0.05986001 -0.07398044 0.011449835 0.035724457
0.029955914 0.0224743 0.049906045 -0.16087651 0.053659618 0.08191248 0.027051922 0.12889317
0.07684964 -0.074256025 0.05989033 -0.01947158 -0.18396059 0.1256743 0.10753855 0.04415124
0.1214417 -0.008153058 0.10980101 0.12592244 0.07083763 -0.027409744 -0.037531395 0.042497773
0.06520531 0.16982344 0.21477924 -0.033306777 -0.039946746 0.1389848 0.086857416 0.082493305
0.08091784 0.13353437 0.09888962 -0.059492473 -0.019552302 -0.16431281 0.048529025 0.16771753
0.12807985 0.09310775 0.14573523 -0.16074955 -0.06657354 0.12455828 0.05401335 0.016219465
-0.077312306 0.07516912 0.0456624 0.009570587 -0.03298001 0.11002316 -0.1365752 0.017712208
0.04473338 0.16635217 -0.03262433 0.06921938 0.02309569 -0.00805115 -0.027847417 0.030084115
0.0076816278 0.06965767 0.00922113 -0.032285463 -0.12673879 -0.00454479 -0.05549508 0.076563075
0.0028948681 0.20106244 0.07530886 0.016380485 -0.018021896 0.14514163 0.045254495 0.14762571
0.02685397 0.11778135 0.010443079 0.07182302 0.12757206 -0.057765786 0.012521256 0.096142866
0.14170837 -0.033291187 0.095983885 0.100618035 -0.017505681 0.0617083 0.044066627 0.13766144
-0.03986327 0.07581712 0.16212112 0.028559634 0.0975732 0.16250117 0.0015851227 0.14105463
-0.013590136 -0.033428878 -0.08326878 0.06523326 0.028172923 -0.020643884 -0.05683846 -0.05103116
-0.077161714 -0.020158248 0.0679121 0.0882785 0.06778645 0.0039329543 0.073625624 0.05523946
-0.044917826 -0.04404488 0.040124156 -0.03722573 -0.03224468 -0.03644559 0.050562814 -0.06521304
0.054199602 0.051617086 -0.048067838 -0.08795448 -0.0037858407 -0.066132925 -0.08639628 0.059541147
-0.024125034 -0.053234357 -0.00052578194 -0.06304813 -0.051266056 0.023372376 0.07192055 -0.078956395
-0.036855847 0.05983016 -0.03888922 -0.05337408 -0.07084455 -0.07867601 -0.06888756 0.009518844
-0.080773346 0.08003856 0.024528822 0.05885452 0.0878528 -0.08203064 -0.04314891 0.03761777
0.0017755413 -0.015312182 0.083685346 0.022984393 -0.045593176 -0.02237025 -0.046219803 -0.045888707
-0.0053901076 -0.07954387 -0.043571074 -0.04777875 -0.07153954 0.03757383 -0.034868415 -0.028957572
0.03578573 -0.027396725 0.03688142 0.021327369 0.007220029 0.0018093325 -0.0033104348 -0.069358915
0.08141531 0.04214487 0.03070794 -0.08722134 -0.045022033 0.018846259 0.0061856927 0.038224336
-0.05204219 0.026485406 0.029955007 -0.009296035 0.035592698 -0.009489911 -0.057529192 0.020922434
0.011864232 0.017174777 0.087910086 -0.028895816 -0.07247816 0.08589612 0.0011154269 -0.023159651
-0.07471063 -0.007281816 -0.0045582345 -0.050362565 -0.08812961 0.028103814 0.062563054 0.065280676
0.06762395 -0.085087635 -0.04346538 0.010727763 0.046137154 -0.08672716 -0.010057312 -0.04901765
-0.03277965 0.059185818 0.038282003 -0.070692435 0.045658365 0.013487803 0.013303979 -0.009758945
00000000: 5c5b ffbb 39c0 a5bd 7341 c2bc c08c 8d3d
00000010: e835 98bd 6da4 a83d 78a5 09bc 1ce8 093c
00000020: 210c b63d a96d b83d d524 04bc ab8b 9d3c
00000030: d07f f43d 3af3 8dbd 9b79 06bd f937 ef3c
00000040: 3822 21be 49ef af3d fa6e f23d d6df bd3d
00000050: c52f 75bd 0f83 97bd 1798 3b3c cf53 123d
00000060: 1b66 f53c 061c b83c 486a 4c3d d0bc 24be
00000070: 30ca 5b3d bbc1 a73d fe9b dd3c 92fc 033e
00000080: 5863 9d3d 8b13 98bd 904f 753d dd82 9fbc
00000090: 2a60 3cbe c4b0 003e 2c3d dc3d eed7 343d
000000a0: 6db6 f83d 6794 05bc 5adf e03d d0f1 003e
000000b0: 5213 913d 668a e0bc 85ba 19bd 2512 2e3d
000000c0: 5d8a 853d 32e6 2d3e 17ef 5b3e b06c 08bd
000000d0: 339f 23bd 0852 0e3e 4de2 b13d 40f2 a83d
000000e0: 41b8 a53d 3cbd 083e a486 ca3d 61ae 73bd
000000f0: 262c a0bc 9e41 28be 5fc6 463d 25be 2b3e
00000100: 5d27 033e 47af be3d 9e3b 153e 889b 24be
00000110: b557 88bd 6918 ff3d 1a3d 5d3d afde 843c
00000120: ea55 9ebd 45f2 993d 7f08 3b3d f4cd 1c3c
00000130: 0c16 07bd d353 e13d 5fda 0bbe 3119 913c
00000140: 593a 373d 3958 2a3e 17a1 05bd e4c2 8d3d
00000150: 2c33 bd3c f8e8 03bc 4420 e4bc f672 f63c
00000160: 2ab6 fb3b aea8 8e3d 3914 173c c33d 04bd
00000170: d0c7 01be 76ec 94bb cf4e 63bd 1acd 9c3d
00000180: d4b7 3d3b 50e3 4d3e 883b 9a3d 5e30 863c
00000190: a8a2 93bc 02a0 143e c75c 393d 322b 173e
000001a0: dbfc db3c 5937 f13d 7319 2b3c f317 933d
000001b0: 40a2 023e d19b 6cbd f425 4d3c 8de6 c43d
000001c0: 001c 113e 575c 08bd 3393 c43d d410 ce3d
000001d0: 1368 8fbc d8c1 7c3d 357f 343d 1ff7 0c3e
000001e0: ab47 23bd 0246 9b3d 1403 263e e5f5 e93c
000001f0: 75d4 c73d b566 263e e4c3 cf3a a070 103e
00000200: 29a9 5ebc b8ec 08bd d288 aabd 0499 853d
00000210: e7ca e63c 5d1d a9bc 72cf 68bd 0d06 51bd
00000220: f606 9ebd e922 a5bc 8015 8b3d 5ccb b43d
00000230: 9fd3 8a3d 03e0 803b 08c9 963d c642 623d
00000240: c1fb 37bd 6768 34bd 3a59 243d 027a 18bd
00000250: ff12 04bd f947 15bd f41a 4f3d 6a8e 85bd
00000260: 6700 5e3d 706c 533d c8e2 44bd 7a21 b4bd
00000270: de1b 78bb b370 87bd 88f0 b0bd 6be1 733d
00000280: dda1 c5bc 450c 5abd a1d4 09ba 611f 81bd
00000290: 5bfc 51bd 6d77 bf3c 154b 933d e4b3 a1bd
000002a0: 28f6 16bd 7810 753d 4e4a 1fbd c89e 5abd
000002b0: f316 91bd e320 a1bd ec14 8dbd edf4 1b3c
000002c0: 7f6c a5bd 42eb a33d abf0 c83c 7011 713d
000002d0: 2bec b33d aeff a7bd e9bc 30bd 1715 1a3d
000002e0: 48b9 e83a f2df 7abc 3963 ab3d c449 bc3c
000002f0: e9bf 3abd d141 b7bc fa50 3dbd ccf5 3bbd
00000300: 809f b0bb e6e7 a2bd 9577 32bd a7b3 43bd
00000310: 5383 92bd 04e7 193d 2fd2 0ebd 6e38 edbc
00000320: 0f94 123d 196f e0bc f910 173d bcb6 ae3c
00000330: fe95 ec3b 2027 ed3a e1f3 58bb 0c0c 8ebd
00000340: 12bd a63d 19a0 2c3d 388f fb3c 1aa1 b2bd
00000350: 0669 38bd 7863 9a3c 5ab1 ca3b 1f91 1c3d
00000360: 312a 55bd ecf7 d83c 3464 f53c 664e 18bc
00000370: a6c9 113d 927b 1bbc bba3 6bbd 8665 ab3c
00000380: 3262 423c 1eb2 8c3c 340a b43d ebb6 ecbc
00000390: 6e6f 94bd 4eea af3d 8433 923a 4fb9 bdbc
000003a0: e301 99bd 4d9c eebb 3e5d 95bb fa48 4ebd
000003b0: 4c7d b4bd f839 e63c 0f21 803d e0b1 853d
000003c0: 6d7e 8a3d 6d42 aebd c108 32bd 80c3 2f3c
000003d0: 50fa 3c3d 029e b1bd 6dc7 24bc bbc6 48bd
000003e0: f443 06bd d46c 723d 97cd 1c3d 32c7 90bd
000003f0: 4404 3b3d f2fb 5c3c eff8 593c fbe3 1fbc

value_stream.0.bias f4 [64]
0.084394015 -0.065487675 0.05207477 -0.11008069 0.021727825 -0.06419982 0.035640243 0.09826943
0.08774469 0.008604359 0.024676744 0.10749723 0.09820072 -0.055806212 0.014207148 0.08299322
-0.05706661 0.06675858 0.023371214 0.065078884 0.085167415 -0.015708188 0.11325311 0.0046375035
0.08499007 -0.07245547 0.05406295 0.0358988 -0.0008618346 0.021139741 -0.07150164 -0.09244675
0.03900203 0.013245321 -0.0045017092 0.07363063 -0.0029477903 0.057201155 0.08728504 0.0088231815
-0.010505513 -0.027443385 -0.058696635 -0.02999571 0.074244596 0.03097888 0.05962462 0.03590728
-0.0073891347 -0.06508989 -0.06852692 -0.048429444 -0.04373842 -0.024887988 0.029324196 -0.026019458
-0.040477946 0.048855007 -0.028643703 -0.08444597 0.0064764344 -0.059843935 0.0050653215 -0.043843936
00000000: c5d6 ac3d 671e 86bd 5b4c 553d fc71 e1bd
00000010: 8dfe b13c 327b 83bd 81fb 113d 7c41 c93d
00000020: 7db3 b33d 4cf9 0c3c e226 ca3c 8227 dc3d
00000030: 761d c93d 0e95 64bd 19c5 683c 59f8 a93d
00000040: adbe 69bd b9b8 883d fd74 bf3c 1448 853d
00000050: 416c ae3d 75ae 80bc 3ff1 e73d 33f6 973b
00000060: 460f ae3d 8963 94bd 1d71 5d3d 9f0a 133d
00000070: beec 61ba 402d ad3c 746f 92bd b954 bdbd
00000080: 98c0 1f3d e702 593c 1383 93bb a8cb 963d
00000090: b72f 41bb c24b 6a3d 80c2 b23d 1b8f 103c
000000a0: 511f 2cbc f3d0 e0bc e26b 70bd 90b9 f5bc
000000b0: 8d0d 983d 6cc7 fd3c f238 743d 8313 133d
000000c0: 8e20 f2bb d94d 85bd d857 8cbd f45d 46bd
000000d0: 0f27 33bd e5e1 cbbc 4c39 f03c c226 d5bc
000000e0: 34cc 25bd 301c 483d 33a6 eabc 02f2 acbd
000000f0: 4538 d43b ea1e 75bd fffa a53b b395 33bd

value_stream.2.weight f4 [1, 64]
-0.20346588 -0.033903837 0.18237431 0.061960068 0.10698635 -0.1571317 -0.16610172 -0.13258097
-0.14285192 -0.15167215 0.0880566 -0.18202879 -0.19033293 -0.103093 -0.1671437 -0.19327624
-0.07530781 0.032465488 0.04847722 0.047745284 0.11701624 0.08158171 0.1618754 -0.11991938
0.20454568 0.021809423 -0.19771366 0.024555117 0.0152612375 0.0154296085 0.00995229 0.07631202
-0.1794325 -0.09246497 0.024351375 0.0012360702 0.14927414 -0.029463038 0.13217986 -0.09848022
-0.18349923 -0.10157091 -0.21403512 0.10121437 0.15804304 0.15552405 0.042488802 0.1971991
0.05268618 -0.0013791156 0.09381278 -0.19979127 0.11685905 0.010924528 0.19450471 0.01580967
0.16131386 0.14723773 0.06677358 0.105669945 -0.07268965 -0.16736336 -0.019949153 -0.124418944
00000000: 5c59 50be c0de 0abd 55c0 3a3e d7c9 7d3d
00000010: a91b db3d 22e7 20be 9216 2abe 4ec3 07be
00000020: c647 12be f24f 1bbe 0557 b43d c165 3abe
00000030: a3e6 42be 6c22 d3bd b827 2bbe 35ea 45be
00000040: fb3a 9abd 88fa 043d 0d90 463d 8f90 433d
00000050: 36a6 ef3d 5014 a73d aac2 253e 4b98 f5bd
00000060: 6c74 513e ada9 b23c 7375 4abe d027 c93c
00000070: 450a 7a3c 78cc 7c3c ee0e 233c 7a49 9c3d
00000080: 27bd 37be 465e bdbd 897c c73c a203 a23a
00000090: 52db 183e 785c f1bc 285a 073e ffaf c9bd
000000a0: 39e7 3bbe 6904 d0bd 062c 5bbe 7b49 cf3d
000000b0: 09d6 213e b241 1f3e bd08 2e3d 90ee 493e
000000c0: 77cd 573d 71c3 b4ba ea20 c03d 1596 4cbe
000000d0: cc53 ef3d cbfc 323c 3e2c 473e 4883 813c
000000e0: 762f 253e 7dc5 163e 96c0 883d 7c69 d83d
000000f0: 50de 94bd 4d61 2bbe 686c a3bc 5ccf febd

advantage_stream.0.weight f4 [64, 128]
-0.014292639 0.0559732 -0.08235464 0.00073986984 -0.008112994 0.043071784 0.07105806 0.00087018724
-0.012107223 -0.016863914 -0.0065264115 -0.0012691997 -0.041704632 -0.08070192 -0.08639714 -0.083804876
0.007404854 -0.08685948 -0.017432077 0.06306902 -0.04352793 -0.012502241 -0.010785936 -0.065105796
-0.04421941 -0.028770443 -0.00483364 0.00532602 -0.014881921 -0.08646103 -0.08209311 -0.04245203
0.07624266 -0.048795886 -0.029714981 0.00534586 -0.08972543 0.023405466 0.03540045 0.031792294
-0.0115894005 -0.020459907 -0.07013004 0.063297495 -0.04296356 -0.03205141 0.044501606 -0.012132002
0.022486918 0.06231692 -0.08289057 -0.08127553 0.04282842 0.05433362 -0.060437493 0.057225548
-0.03501533 -0.050742682 0.06678539 -0.038543757 -0.026923353 0.011430963 -0.059931703 -0.015279598
-0.0008257968 -0.028139848 -0.06623473 0.030408556 0.047809634 -0.04122101 0.06735094 -0.030262683
-0.04213836 0.031544812 0.024504483 -0.008184247 0.03237784 -0.074653395 0.05183207 0.033098347
-0.03266342 -0.0038482943 0.06736408 -0.082331896 -0.026812406 0.012928888 0.041425295 -0.083092846
0.059204217 -0.032199297 0.0047832984 0.041283414 -0.08686982 -0.08646659 0.009934023 -0.07602482
-0.062112298 0.012604377 -0.038600985 0.06206781 0.013611746 0.046712704 0.006326664 0.04545466
-0.020797096 0.06520279 -0.09453618 -0.087531015 -0.024378631 0.061653163 -0.010423675 -0.06351558
-0.02134345 0.020727197 0.03919634 0.014692703 0.040750187 0.035518557 -0.08509085 -0.0060981987
-0.042464748 -0.038084563 -0.0880154 -0.0019809657 0.024343845 0.043802895 0.04407261 0.055424843
-0.042342134 0.07642889 0.06075467 -2.5857698e-05 0.04246614 -0.061194103 -0.08255398 -0.026405817
-0.062431134 0.0037723957 -0.066329494 0.039538402 -0.08012004 0.040488515 0.07413438 -0.07879987
0.027629787 -0.093189225 0.023522777 -0.049495433 0.059597045 -0.054398704 -0.059250355 0.084171355
-0.05624562 0.0014569744 0.047373995 0.009221342 -0.06373889 -0.040142912 -0.01173147 0.052820057
-0.0018315123 -0.06811177 0.038582027 0.014347019 0.048516195 -0.035439506 -0.081291616 -0.064727284
-0.06954911 0.054140776 -0.014866521 -0.042703904 0.04847686 -0.016663607 0.029981688 0.009153505
-0.036940835 -0.017189465 0.05966588 0.044697396 0.06928757 0.053373545 -0.041221198 -0.027837824
-0.026039755 -0.05713987 0.0074162674 0.008593265 0.015838047 0.019794151 -0.055829547 -0.0796803
0.030983001 -0.0694122 -0.024597965 -0.07888912 0.07923621 -0.039900586 -0.021224234 0.057001382
-0.01515961 -0.07208453 -0.01311867 0.008166689 -0.019503474 -0.06643518 -0.025318485 0.02555483
0.034054127 0.008615637 0.046674453 0.04846465 0.022439288 0.08596211 -0.088422276 -0.05416563
-0.07083052 -0.06802349 -0.0014926516 0.08648458 -0.04669357 -0.08534467 -0.001051606 0.004114052
-0.0138639845 -0.05712763 -0.0820259 -0.09534804 0.03756828 -0.01390499 0.0617188 -0.057118863
0.015915766 -0.061839815 -0.07004407 -0.050147545 0.05615532 -0.02707909 -0.003966819 0.053511217
-0.07753525 -0.02258356 0.054444425 0.029688435 0.036125593 0.024554996 0.08399868 0.0061131474
0.034255736 -0.080792055 0.007037512 -0.07236633 -0.04095542 -0.055899385 -0.025101798 -0.03189843
00000000: ac2b 6abc 2744 653d 8da9 a8bd d3f3 413a
00000010: 5dec 04bc 0a6c 303d e386 913d 471d 643a
00000020: 605d 46bc 3126 8abc 82db d5bb 465b a6ba
00000030: 7ad2 2abd 0c47 a5bd fcf0 b0bd e4a1 abbd
00000040: 6ba4 f23b 62e3 b1bd b7cd 8ebc 552a 813d
00000050: 584a 32bd 33d6 4cbc 7fb7 30bc 3056 85bd
00000060: 691f 35bd feaf ebbc 8363 9ebb e585 ae3b
00000070: 4dd3 73bc 7b12 b1bd 6f20 a8bd 2ee2 2dbd
00000080: 1d25 9c3d 32de 47bd d56c f3bc 532c af3b
00000090: f7c1 b7bd d2bc bf3c 1000 113d a338 023d
000000a0: 78e1 3dbc 899b a7bc 57a0 8fbd 1ea2 813d
000000b0: 8ffa 2fbd 5748 03bd 5147 363d 4ec5 46bc
000000c0: 7c36 b83c 0740 7f3d 88c2 a9bd c973 a6bd
000000d0: da6c 2f3d ee8c 5e3d 4e8d 77bd 5665 6a3d
000000e0: 3c6c 0fbd 8fd7 4fbd c7c6 883d 0fe0 1dbd
000000f0: 5d8e dcbc ef48 3b3c f27a 75bd 4757 7abc
00000100: 497a 58ba 8a85 e6bc 13a6 87bd 5d1b f93c
00000110: 09d4 433d 5dd7 28bd 4aef 893d 72e9 f7bc
00000120: 4699 2cbd 2235 013d a0bd c83c 3817 06bc
00000130: a09e 043d e1e3 98bd dd4d 543d 2292 073d
00000140: 14ca 05bd aa33 7cbb 2ef6 893d a09d a8bd
00000150: b1a5 dbbc b0d3 533c 92ad 293d 952c aabd
00000160: 1f80 723d 69e3 03bd 37bd 9c3b cc18 293d
00000170: cee8 b1bd 6515 b1bd 50c2 223c e7b2 9bbd
00000180: 7769 7ebd 9782 4e3c 111c 1ebd d13a 7e3d
00000190: cd03 5f3c d255 3f3d e74f cf3b aa2e 3a3d
000001a0: ac5e aabc 0a89 853d 2f9c c1bd 7643 b3bd
000001b0: b2b5 c7bc 0788 7c3d 10c8 2abc 7514 82bd
000001c0: 75d8 aebc 15cc a93c 578c 203d aab9 703c
000001d0: abe9 263d e87b 113d 1d44 aebd 66d3 c7bb
000001e0: 84ef 2dbd 8ffe 1bbd 6b41 b4bd 17d3 01bb
000001f0: be6c c73c aa6a 333d 7b85 343d 2905 633d
00000200: f26e 2dbd c086 9c3d e4d9 783d fce8 d8b7
00000210: faf0 2d3d aba6 7abd 1012 a9bd 0351 d8bc
00000220: cab7 7fbd 4c3a 773b c2d7 87bd 05f3 213d
00000230: fa15 a4bd 49d7 253d c4d3 973d d461 a1bd
00000240: dd57 e23c fed9 bebd d7b2 c03c b9bb 4abd
00000250: 081c 743d 2dd1 5ebd 80b0 72bd 0862 ac3d
00000260: cf61 66bd f3f7 be3a 3c0b 423d 1d15 173c
00000270: 8989 82bd e56c 24bd 5a35 40bc d859 583d
00000280: 5b0f f0ba 2f7e 8bbd 3008 1e3d c20f 6b3c
00000290: ebb8 463d 0429 11bd 387c a6bd bd8f 84bd
000002a0: c46f 8ebd b8c2 5d3d b592 73bc 4aea 2ebd
000002b0: ac8f 463d 1e82 88bc 289c f53c 95f8 153c
000002c0: 464f 17bd ecd0 8cbc 3664 743d 9e14 373d
000002d0: a4e6 8d3d 389e 5a3d 8fd7 28bd 260c e4bc
000002e0: 5351 d5bc 7f0b 6abd 2904 f33b c4ca 0c3c
000002f0: cbbe 813c 5827 a23c 86ad 64bd 6d2f a3bd
00000300: 10d0 fd3c fc27 8ebd ac81 c9bc 9e90 a1bd
00000310: 9846 a23d cc6e 23bd 72de adbc 487a 693d
00000320: 0360 78bc 0ea1 93bd b1ef 56bc 94cd 053c
00000330: c0c5 9fbc 2b0f 88bd b668 cfbc 5d58 d13c
00000340: 577c 0b3d 9a28 0d3c b62d 3f3d de82 463d
00000350: 99d2 b73c e70c b03d bd16 b5bd c8dc 5dbd
00000360: 970f 91bd e64f 8bbd 14a5 c3ba d41e b13d
00000370: c241 3fbd 30c9 aebd 0bd6 89ba 2bcf 863b
00000380: c425 63bc a9fe 69bd 32fd a7bd d545 c3bd
00000390: 32e1 193d c1d1 63bc dacc 7c3d 78f5 69bd
000003a0: c861 823c bf4b 7dbd 4473 8fbd 8367 4dbd
000003b0: 1f03 663d f8d4 ddbc 17fc 81bb 942e 5b3d
000003c0: cdca 9ebd 2801 b9bc 1e01 5f3d 2935 f33c
000003d0: 6ef8 133d 8f27 c93c 8007 ac3d cc50 c83b
000003e0: be4f 0c3d 4e76 a5bd ee9a e63b cc34 94bd
000003f0: dfc0 27bd c1f6 64bd 49a2 cdbc eea7 02bd

advantage_stream.0.bias f4 [64]
-0.025386095 -0.076267846 -0.08291744 0.008137989 0.03680384 -0.013803577 0.07913482 0.033720512
-0.075184345 0.075190045 0.0078245895 0.08088652 -0.088675134 0.07173222 0.07859347 0.073718265
0.028522385 0.055806033 -0.06386438 -0.0061050574 -0.036618702 0.06813266 -0.0582892 0.05652128
-0.024945538 -0.08904135 -0.07814905 -0.05551795 -0.010715965 -0.009380357 -0.024717676 0.010322362
0.070772864 -0.06823755 -0.04624968 0.058222838 -0.039150927 0.05491866 -0.0026119943 0.04489441
-0.0066894526 -0.079310365 -0.034556143 0.053320725 -0.097870745 0.07745631 -0.048160747 -0.08235471
0.042329777 0.010697103 -0.040650632 0.07836306 -0.043748975 0.06273277 -0.093705 0.0291785
0.0785995 0.011362796 -0.04710739 0.043367308 0.06810108 0.075948834 -0.08142989 -0.054000072
00000000: 80f6 cfbc 5132 9cbd 9ed0 a9bd 3355 053c
00000010: a0bf 163d 6628 62bc 7011 a23d 851e 0a3d
00000020: 40fa 99bd 3dfd 993d b532 003c d5a7 a53d
00000030: 4f9b b5bd 58e8 923d 9df5 a03d 9af9 963d
00000040: c7a7 e93c de94 643d 54cb 82bd ef0c c8bb
00000050: 7efd 15bd 2389 8b3d a8c0 6ebd dc82 673d
00000060: 965a ccbc 505b b6bd 9c0c a0bd ca66 63bd
00000070: 0492 2fbc 12b0 19bc b97c cabc 201f 293c
00000080: 5df1 903d 21c0 8bbd 4e70 3dbd 127b 6e3d
00000090: b95c 20bd 64f2 603d fe2d 2bbb 33e3 373d
000000a0: 3233 dbbb 796d a2bd be8a 0dbd d566 5a3d
000000b0: 7570 c8bd 6aa1 9e3d 3444 45bd 96a9 a8bd
000000c0: fd61 2d3d e742 2f3c 4781 26bd d07c a03d
000000d0: 2032 33bd 0a7a 803d 68e8 bfbd c007 ef3c
000000e0: c6f8 a03d 052b 3a3c aef3 40bd eba1 313d
000000f0: 9478 8b3d 108b 9b3d b7c4 a6bd 2e2f 5dbd

advantage_stream.2.weight f4 [9, 64]
0.028114436 0.099742256 0.12603171 -0.053923406 0.08833543 0.04123275 -0.07700026 -0.053448774
-0.01207553 -0.05184059 -0.09413796 0.1009919 0.05456278 -0.109016635 -0.09966219 0.07306103
0.13705762 0.006265383 -0.067013636 0.101583794 0.04231662 0.051120415 -0.10781 -0.055719607
-0.11771859 -0.10086552 -0.10180554 0.028960561 0.039747916 -0.009391023 0.09142026 0.04103308
0.029204436 0.09186563 0.06962799 -0.010628747 -0.06998299 -0.047844544 0.029361345 -0.036189932
0.064596415 -0.055078175 0.094056234 -0.05374633 0.06422063 -0.10214983 0.10187826 0.09074715
-0.046696473 0.0146035245 0.08895395 0.08760925 0.11830609 -0.048236106 -0.05967207 -0.09173364
0.10504457 -0.05245349 -0.056258492 0.13385636 0.093455404 -0.057755955 -0.062201485 0.0021124273
-0.015872806 0.12961298 0.050591502 0.017477231 -0.10678815 0.051455244 -0.057790376 -0.119701155
-0.02872593 0.091809995 0.06358352 -0.07115825 0.009250568 -0.0052378094 -0.10401746 -0.060792126
-0.01893461 -0.05318312 -0.0014428701 -0.053949393 0.05479002 0.10624961 -0.07557716 0.06192437
-0.11498017 -0.10443282 0.012089644 0.070093036 0.022949822 0.07717654 -0.018268395 0.011266056
0.08873915 -0.075450845 -0.06139124 0.082966976 -0.10976969 -0.070866786 0.03964504 0.08098627
-0.08504627 -0.08324331 0.094878234 0.056160897 -0.056349427 -0.09876903 -0.06621093 0.071973816
-0.06468707 -0.052967288 0.012769231 -0.072955824 -0.091133274 0.006881646 -0.07804588 0.05549872
-0.06497339 -0.03863989 0.1302311 -0.05035344 0.043028735 0.109158315 0.082274675 -0.017706586
0.10189294 0.094003335 0.11959031 0.0033204732 0.109976366 0.055867076 -0.007555877 -0.0052609397
-0.035405383 -0.037634317 -0.05942305 0.02572619 -0.08608035 0.124478586 -0.088644795 -0.04394787
0.0790042 0.04593895 -0.05074994 0.09594955 0.03685107 -0.067173205 0.090649754 0.050784763
-0.042190533 -0.030168002 -0.08762523 0.12635225 -0.07912261 0.0039583202 0.050174132 0.022049492
-0.10203472 -0.0651221 -0.034689512 0.08603619 -0.1327817 -0.080082476 -0.060870834 0.08109321
-0.035800375 0.07485095 -0.053580653 -0.037613835 -0.052129924 -0.06161743 -0.018231513 -0.008124143
0.05422238 -0.008154278 -0.029856067 0.009608762 -0.05428711 0.11914266 -0.0920473 0.114052825
0.12372706 0.026094168 -0.03546468 0.04936865 -0.15438865 0.02512163 0.03848912 -0.10332458
-0.0072344034 0.044853024 -0.11935812 -0.05129431 -0.08193362 0.08921051 0.0579888 0.09488792
-0.027701678 -0.0016160926 -0.01549543 -0.047568124 -0.0600471 0.016792173 0.05290252 -0.052234083
0.03659262 0.0001068084 0.01801024 -0.021889696 0.030272316 0.10064557 -0.05394524 -0.048649922
-0.09542108 -0.047839843 -0.078280315 -0.00478406 0.0133280605 0.017794382 0.061687678 -0.05299305
-0.063942395 0.094380684 0.008656938 -0.04904935 0.0854778 -0.021436322 0.10717118 -0.09640937
0.05582681 0.082832314 0.068237096 -0.11185383 -0.12507048 -0.0052011837 0.10266713 -0.10211159
-0.072019815 0.055086467 -0.09004893 0.046715472 -0.05510122 -0.107215814 -0.08984741 -0.025862707
-0.11099845 0.047677938 0.023482312 -0.04853601 -0.06775434 -0.10802042 -0.015279591 0.042065527
00000000: 3f50 e63c ab45 cc3d 750e 013e cade 5cbd
00000010: 35e9 b43d ace3 283d 50b2 9dbd 1aed 5abd
00000020: 72d8 45bc cc56 54bd 67cb c0bd d7d4 ce3d
00000030: 397d 5f3d 1d44 dfbd b11b ccbd 05a1 953d
00000040: d558 0c3e d84d cd3b 723e 89bd 2a0b d03d
00000050: 3154 2d3d a463 513d 7dcb dcbd 3e3a 64bd
00000060: 7216 f1bd 9592 cebd 6c7f d0bd b33e ed3c
00000070: b6ce 223d cedc 19bc 8c3a bb3d 4e12 283d
00000080: 243e ef3c 0c24 bc3d 1f99 8e3d 3224 2ebc
00000090: 3e53 8fbd a4f8 43bd 3487 f03c e53b 14bd
000000a0: 204b 843d a799 61bd 8ea0 c03d 1d25 5cbd
000000b0: 1b86 833d ee33 d1bd 8da5 d03d a4d9 b93d
000000c0: cd44 3fbd 9f43 6f3c 7d2d b63d 7a6c b33d
000000d0: 774a f23d 3993 45bd b36a 74bd d9de bbbd
000000e0: 9c21 d73d 79d9 56bd 4e6f 66bd a411 093e
000000f0: 8c65 bf3d 8291 6cbd fcc6 7ebd a670 0a3b
00000100: b007 82bc 44b9 043e 0939 4f3d 692c 8f3c
00000110: bfb3 dabd bcc2 523d 9ab5 6cbd e125 f5bd
00000120: a452 ebbc e106 bc3d 1438 823d 6bbb 91bd
00000130: b28f 173c eea1 abbb 1b07 d5bd 2a01 79bd
00000140: c11c 9bbc 8bd6 59bd b01e bdba 0afa 5cbd
00000150: 806b 603d 6599 d93d 33c8 9abd 68a4 7d3d
00000160: b97a ebbd e0e0 d5bd a413 463c f08c 8f3d
00000170: 4401 bc3c bc0e 9e3d 9aa7 95bc 4495 383c
00000180: dfbc b53d f985 9abd 6275 7bbd 97ea a93d
00000190: eece e0bd 9b22 91bd d662 223d 21dc a53d
000001a0: bd2c aebd 787b aabd 854f c23d f808 663d
000001b0: a8ce 66bd 6b47 cabd 9999 87bd 0267 933d
000001c0: a87a 84bd 3af4 58bd 0936 513c dd69 95bd
000001d0: 15a4 babd 6e7f e13b 85d6 9fbd a052 633d
000001e0: c510 85bd dc44 1ebd 4d5b 053e 693f 4ebd
000001f0: e63e 303d 658e df3d a07f a83d 670d 91bc
00000200: 3fad d03d d284 c03d c4eb f43d 4c9c 593b
00000210: 4a3b e13d e0d4 643d 4a97 f7bb f663 acbb
00000220: 3c05 11bd 7126 1abd 9665 73bd bbbf d23c
00000230: e54a b0bd a1ee fe3d 678b b5bd af02 34bd
00000240: f4cc a13d 7b2a 3c3d 2bdf 4fbd 3381 c43d
00000250: 26f1 163d 1b92 89bd 94a6 b93d af03 503d
00000260: fbcf 2cbd e322 f7bc db74 b3bd 7c62 013e
00000270: 090b a2bd ccb4 813b 6483 4d3d 23a1 b43c
00000280: 94f7 d0bd bc5e 85bd 9716 0ebd be33 b03d
00000290: edf7 07be 4802 a4bd b253 79bd 3214 a63d
000002a0: 6aa3 12bd 744b 993d 6377 5bbd f710 1abd
000002b0: 3086 55bd 8f62 7cbd 415a 95bc 201b 05bc
000002c0: 4918 5e3d 8599 05bc b694 f4bc 126e 1d3c
000002d0: 295c 5ebd 1101 f43d 4b83 bcbd 8794 e93d
000002e0: 9d64 fd3d 70c3 d53c 6a43 11bd c836 4a3d
000002f0: 0f18 1ebe e0cb cd3c c4a6 1d3d d69b d3bd
00000300: 930e edbb ceb7 373d 0872 f4bd fb19 52bd
00000310: d0cc a7bd 00b4 b63d aa85 6d3d 9954 c23d
00000320: a1ee e2bc 12d3 d3ba 8be0 7dbc cbd6 42bd
00000330: f3f3 75bd bd8f 893c 50b0 583d 68f3 55bd
00000340: 25e2 153d 53fe df38 368a 933c 0552 b3bc
00000350: a6fd f73c 441f ce3d aff5 5cbd 2445 47bd
00000360: 216c c3bd b6f3 43bd 6e51 a0bd 9bc3 9cbb
00000370: f05d 5a3c 86c5 913c 38ac 7c3d 3e0f 59bd
00000380: 3bf4 82bd a94a c13d d4d5 0d3c f9e7 48bd
00000390: fc0e af3d 3a9b afbc 907c db3d 4772 c5bd
000003a0: a7aa 643d fda3 a93d e4bf 8b3d 9f13 e5bd
000003b0: 7a12 00be b16e aabb 2543 d23d e21f d1bd
000003c0: 207f 93bd 59a2 613d 936b b8bd b958 3f3d
000003d0: d1b1 61bd f793 dbbd eb01 b8bd 07de d3bc
000003e0: 2853 e3bd f149 433d fa5d c03c b2cd 46bd
000003f0: cac2 8abd cf39 ddbd 4057 7abc e74c 2c3d

advantage_stream.2.bias f4 [9]
0.06693949 0.1138777 0.11083365 -0.024300635 -0.015315795 0.023202097 -0.03743155 0.055299565
0.047645245
00000000: 9217 893d b638 e93d c1fc e23d 2012 c7bc
00000010: 1aef 7abc 5312 be3c d351 19bd cc81 623d
00000020: a927 433d

hidden.0.weight f4 [128, 8]
-0.28051573 0.3355053 -0.20815477 0.04114135 -0.327684 -0.044800118 -0.31905517 0.09891608
0.05979504 0.15610223 -0.051971234 -0.19674124 0.18377909 -0.16744508 -0.15103403 -0.08413514
0.08091984 -0.014772512 -0.07752795 -0.18907173 0.019241763 0.14542137 -0.09560591 0.24176055
0.3434958 -0.34487745 -0.0016495433 -0.17346255 0.15703228 0.25871205 0.22031628 0.079403736
-0.27938113 -0.1367422 -0.32294634 0.21609718 -0.14818098 -0.34243935 -0.11607276 -0.02545421
-0.16532868 0.03229768 0.09324008 -0.09891313 -0.05111869 0.32074913 0.13787384 0.015604997
-0.1100305 -0.23674428 0.25993794 -0.2864101 0.11127261 0.15378074 0.12078001 -0.15327413
0.015099066 -0.2023651 -0.17728275 0.00417591 0.35168153 0.27727622 -0.342998 0.14117888
-0.3366659 -0.06202579 0.2561009 0.21904176 0.32343706 -0.078455515 0.1933399 0.16122147
0.0884927 0.03688127 0.28089917 0.22235695 -0.16981871 -0.22351831 -0.32043234 0.31810343
0.15402831 0.04499749 -0.12360402 0.32067728 0.10208565 -0.28426796 -0.14991195 0.01014188
0.10177486 0.07450471 0.001468902 0.32449746 0.3421192 0.25467503 0.33453122 0.25485423
0.27917722 -0.27325022 0.2958886 0.08459938 0.32178643 -0.028542478 -0.017337948 0.31397936
-0.14736126 -0.11015015 0.12002579 -0.29862905 0.19972587 -0.052135143 0.22238486 0.17707518
-0.1149374 0.2045427 -0.13046093 -0.29550865 0.09458431 -0.17545442 0.042862207 0.19887209
0.33827633 0.07509738 -0.20488696 0.16958 -0.2810525 0.2839508 -0.09183124 0.11427026
-0.059570186 -0.18486564 0.13094991 -0.35033536 -0.058432434 0.12233498 -0.35258505 -0.26306444
-0.005387505 0.2840701 0.041934766 0.27395433 0.19943282 0.14053424 0.044189535 -0.03368983
-0.22956237 -0.08636753 -0.32003093 -0.12553574 0.25081682 0.14610082 -0.07299868 -0.23387611
-0.04802191 -0.024552435 0.15183675 -0.14100355 0.19885132 0.19148716 0.06321989 0.06179554
0.102387846 -0.253428 0.16330837 0.050530404 0.034079857 0.08101905 0.3349363 0.2484909
-0.04913214 -0.30453044 -0.117222056 0.29220027 -0.17614491 -0.12551387 -0.20286171 0.19929533
0.11457903 0.14119443 0.24079084 0.1646883 0.26471394 0.14932764 0.1195033 0.25728276
-0.1717983 0.34594077 -0.012087 -0.216931 -0.17246076 0.32478857 -0.035576366 0.14235452
0.010075373 0.1841285 0.25880724 -0.30973276 0.010916877 -0.1592294 -0.19593278 -0.14122634
-0.24102703 -0.21434213 0.32977006 -0.17695375 0.15721348 0.037607506 0.074043706 -0.08379826
0.047583453 -0.27800626 -0.26494506 -0.24884632 0.31205305 0.2811012 -0.021813016 -0.128416
-0.25229874 0.07483126 0.2775379 -0.23978285 0.21579199 0.217753 0.33381316 0.2930494
-0.11491776 0.1642874 0.13083865 0.055529863 -0.04687235 -0.27532086 -0.22626455 -0.22712915
-0.19321547 0.058732856 -0.048837155 -0.06380527 -0.04551931 -0.06826727 0.13915317 0.24903822
-0.34558928 0.33857545 0.30460396 0.20123982 0.17400049 -0.31442156 0.26321447 -0.14961465
-0.0034973032 0.25433153 0.13008009 -0.21543622 -0.32459086 -0.2349823 0.18965054 -0.06333082
00000000: c29f 8fbe 5ac7 ab3e 8626 55be d583 283d
00000010: 32c6 a7be 5480 37bd 335b a3be 8494 ca3d
00000020: a5eb 743d 43d9 1f3e cadf 54bd 8976 49be
00000030: 9630 3c3e b976 2bbe aaa8 1abe 0b4f acbd
00000040: 4db9 a53d 6808 72bc f9c6 9ebd 059c 41be
00000050: e7a0 9d3c 57e9 143e 08cd c3bd 1490 773e
00000060: aede af3e c793 b0be 7d35 d8ba 2ba0 31be
00000070: 12cd 203e e875 843e 979a 613e 6d9e a23d
00000080: 0b0b 8fbe 2606 0cbe 3959 a5be 9448 5d3e
00000090: c1bc 17be 3654 afbe 8eb7 edbd 5985 d0bc
000000a0: ec4b 29be 924a 043d a8f4 be3d f892 cabd
000000b0: d561 51bd 3b39 a43e cd2e 0d3e 1aac 7f3c
000000c0: ac57 e1bd 186d 72be 9616 853e 58a4 92be
000000d0: e5e2 e33d b378 1d3e 835b f73d e5f3 1cbe
000000e0: 1362 773c cc38 4fbe 9c89 35be 12d6 883b
000000f0: 9a0f b43e 26f7 8d3e 6f9d afbe 3291 103e
00000100: 795f acbe c10e 7ebd a81f 833e 7c4c 603e
00000110: 8b99 a53e 49ad a0bd e5fa 453e 3e17 253e
00000120: a93b b53d d110 173d 04d2 8f3e 8ab1 633e
00000130: f5e4 2dbe fce1 64be b50f a4be 74de a23e
00000140: 99b9 1d3e 4a4f 383d 1b24 fdbd d02f a43e
00000150: 4812 d13d 928b 91be 8582 19be 212a 263c
00000160: 566f d03d ed95 983d 2c88 c03a 8824 a63e
00000170: 3f2a af3e c464 823e ad47 ab3e 417c 823e
00000180: 51f0 8e3e 74e7 8bbe b67e 973e 7142 ad3d
00000190: 31c1 a43e ead1 e9bc 5008 8ebc e7c1 a03e
000001a0: dfe5 16be 6796 e1bd 15d0 f53d e8e5 98be
000001b0: f084 4c3e a98b 55bd dbb8 633e 3253 353e
000001c0: 4d64 ebbd a473 513e 8d97 05be e94c 97be
000001d0: 6bb5 c13d 53aa 33be 4890 2f3d 20a5 4b3e
000001e0: 8e32 ad3e a8cc 993d e3cd 51be 61a6 2d3e
000001f0: 1de6 8fbe 0062 913e 0412 bcbd 8706 ea3d
00000200: deff 73bd 6b4d 3dbe bc17 063e 285f b3be
00000210: d956 6fbd c38a fa3d 0786 b4be 62b0 86be
00000220: ab89 b0bb a371 913e cac3 2b3d be43 8c3e
00000230: 1e38 4c3e 35e8 0f3e 1600 353d 59fe 09bd
00000240: 6612 6bbe 76e1 b0bd 18db a3be 718c 00be
00000250: 106b 803e 749b 153e 5580 95bd 387d 6fbe
00000260: 9fb2 44bd 3022 c9bc 187b 1b3e 3c63 10be
00000270: ae9f 4b3e 3615 443e 6e79 813d 521d 7d3d
00000280: b8b0 d13d 51c1 81be 4f3a 273e f8f8 4e3d
00000290: 5297 0b3d 51ed a53d c57c ab3e 6674 7e3e
000002a0: c83e 49bd 6aeb 9bbe 1e12 f0bd 469b 953e
000002b0: 555f 34be b586 00be fbba 4fbe 1314 4c3e
000002c0: 69a8 ea3d 4695 103e e091 763e 0da4 283e
000002d0: 9688 873e 58e9 183e 25be f43d 91ba 833e
000002e0: e5eb 2fbe 261f b13e 8d08 46bc 2923 5ebe
000002f0: 8e99 30be b04a a63e 86b8 11bd 62c5 113e
00000300: 2d13 253c 2e8c 3c3e 6282 843e 4b95 9ebe
00000310: b3dc 323c 080d 23be 9aa2 48be a39d 10be
00000320: cacf 76be 817c 5bbe 9fd7 a83e 5d33 35be
00000330: 92fc 203e 540a 1a3d 3aa4 973d 6c9e abbd
00000340: dee6 423d d656 8ebe e1a6 87be 92d1 7ebe
00000350: 6bc5 9f3e 7fec 8f3e 36b1 b2bc 7c7f 03be
00000360: 4d2d 81be 2241 993d 7319 8e3e a389 75be
00000370: 93f8 5c3e a4fa 5e3e 8fe9 aa3e 920a 963e
00000380: 015a ebbd f53a 283e 91fa 053e 4873 633d
00000390: 39fd 3fbd dbf6 8cbe e5b1 67be 8b94 68be
000003a0: 47da 45be dd91 703d 7809 48bd 56ac 82bd
000003b0: 7572 3abd b6cf 8bbd 2b7e 0e3e e003 7f3e
000003c0: 14f1 b0be c359 ad3e 0df5 9b3e d011 4e3e
000003d0: 2f2d 323e ddfb a0be 0cc4 863e 9534 19be
000003e0: 0333 65bb be37 823e b733 053e 509b 5cbe
000003f0: c630 a6be 339f 70be c033 423e 97b3 81bd
